checkpoints/30h-0,508/market-transformer.pth (torch, 794130 bytes, 50 tensors)

cls_token f4 [1, 1, 64]
000000 20 55 10 3f 2d 73 56 be 4f 93 8e 3c c4 ee 89 be
       0.5637989 -0.20942374 0.017404227 -0.26939976
000010 b6 6d 0a bd 97 0c 97 be 17 e0 6e ba 48 c7 02 be
       -0.033796035 -0.29501793 -0.00091123715 -0.12771332
000020 f5 14 b6 bd 4a 1a d2 bd ea 59 ae bd ab 4d 44 bb
       -0.08890716 -0.102589205 -0.085132435 -0.002995352
000030 d0 e5 1e 3c 59 ea 15 be b3 dc 7b bd 0d 1b c0 bd
       0.009698346 -0.14640178 -0.061489772 -0.093801595
000040 3f 1a d7 3d bf c2 f5 bc ae dd dd bd 94 de 66 3e
       0.10503053 -0.030000089 -0.10833298 0.22545844
000050 d0 8d 55 bd 13 22 21 be a8 57 29 3d 1e 87 ac 3d
       -0.052137196 -0.15735655 0.04134336 0.08424209
000060 be 55 fb be 91 dc 9b 3e 83 e0 a4 bd 03 10 28 3d
       -0.49088854 0.30441716 -0.08050635 0.041030895
000070 df 13 53 3e 22 99 dc 3d 49 40 7f 3d a1 ac ea 3e
       0.20613049 0.10771395 0.062317166 0.4583483
000080 ec 70 fa be 41 18 dc be 22 af d5 3c a0 f9 ad 3b
       -0.48914278 -0.42987254 0.026084486 0.0053092986
000090 13 a5 5f 3e f7 78 67 bd 3e 00 62 3d 96 0f 2c be
       0.21840315 -0.056511845 0.055176012 -0.1680282
0000a0 d6 1f d1 3d 4f 8f 8a be 24 b7 50 be a7 fd 89 be
       0.1021115 -0.2706246 -0.20382363 -0.26951334
0000b0 c5 4f 68 3e ad eb 96 be 99 11 46 3e 2d 7e 8b 3c
       0.2268668 -0.2947668 0.1934265 0.017027939
0000c0 b7 9e 3a 3e 6c 9a 6e be d7 1e d7 3a 91 70 82 bd
       0.18224607 -0.23301095 0.0016412389 -0.063691266
0000d0 a9 8b ae be 82 fb d6 bd 65 ee ed be 19 51 0d be
       -0.34090927 -0.1049719 -0.46470943 -0.13800468
0000e0 3e dc 56 3c 6f 48 16 3e 01 f2 07 3d 0c 12 3d 3e
       0.013114033 0.14676069 0.033189777 0.18463916
0000f0 7b a1 bd bd 3f 48 57 3d 39 ab cf 3d f1 cd 34 bc
       -0.092593156 0.052559134 0.1014008 -0.011035428

input_proj.weight f4 [64, 33]
000000 92 db 07 be 94 36 c8 bd 2c 18 a3 bd 81 5b a3 bc
       -0.13267353 -0.09776035 -0.07963595 -0.019941093
000010 eb 64 10 bd 9f 87 e5 bc f8 04 a0 3d 3f 38 f7 bb
       -0.035252493 -0.02801877 0.07813448 -0.007544547
000020 2a c9 5f bc 86 f0 13 bd c0 4a 55 3d c5 ab 84 3e
       -0.013658801 -0.036118053 0.05207324 0.259123
000030 be 31 9c bc 45 1c 33 3d b9 43 aa 3c f0 e6 2a 3c
       -0.019066688 0.04372813 0.020784246 0.010431036
000040 7d 87 a7 3c b6 4d d0 bd fe 4e 5a 3c 42 31 74 3b
       0.020450348 -0.10171072 0.013324497 0.0037260805
000050 9b 2d 8a 3d 8c cc 03 3c c1 a7 96 3b bc 64 28 bd
       0.0674698 0.008044373 0.0045976345 -0.041111693
000060 33 3f e8 3b 7e 10 a4 3c e1 15 c5 bc d0 5b fc 3c
       0.007087612 0.020027395 -0.024058284 0.030805498
000070 f4 37 41 3d 39 df 75 3c a8 d1 42 3d 27 4f 8b 3d
       0.0471725 0.015006834 0.047563225 0.068022065
000080 b5 a7 a7 3c f2 07 cc bd ea ff 7b bd e8 71 05 3d
       0.020465711 -0.09962453 -0.061523356 0.032579333
000090 56 92 8c bc cb 82 3b 3c c5 3b 00 bd 19 b0 87 3c
       -0.017159622 0.011444758 -0.031307 0.016563462
0000a0 eb e1 63 3b b1 f9 23 3b 8a 28 0d bd c3 50 f4 bc
       0.0034772109 0.0025020654 -0.03446249 -0.029823666
0000b0 fd 02 28 3e c0 11 da 3b 43 c6 18 bc e6 f2 84 3d
       0.1640739 0.006654948 -0.009324613 0.06491642
0000c0 d1 ab 17 3d b1 44 06 bd 7e 73 8a 3c bf ff 70 bd
       0.03702909 -0.032780353 0.016900774 -0.05883765
0000d0 a1 48 f5 3c ee fc fb 3d 62 58 6d bc e6 bc 1b bc
       0.029941859 0.12304102 -0.014486404 -0.009505486
0000e0 75 ff 0e bb fc e9 b6 bb 83 bd dd bb 17 2a da bb
       -0.0021819745 -0.0055820923 -0.0067669763 -0.0066578495
0000f0 ca 78 e3 bb 5e 92 a8 bd 59 fe 6a bd 31 d5 8d 3d
       -0.0069418894 -0.08231042 -0.05737147 0.06925429
000100 c6 b5 e9 bc f0 30 65 3c 28 30 2e 3d f8 c7 cc 3b
       -0.02852906 0.013988718 0.042526394 0.006249424
000110 35 06 2a be db 9d a6 ba 51 45 23 bd 31 f2 19 3d
       -0.1660393 -0.001271184 -0.039861027 0.037584487
000120 6a 4a 8c bc 49 a0 09 bc 0e 5b d4 bb 31 dc 01 3e
       -0.017125327 -0.008400031 -0.006480581 0.12681653
000130 02 43 c8 3d d2 e3 17 be 13 80 00 3d 74 5d 49 3d
       0.09778406 -0.14833 0.03137214 0.04916139
000140 cc 67 fb bc 79 1f 15 bd 2a 26 f3 bb 97 97 6c bd
       -0.030689143 -0.036406968 -0.007420321 -0.057761755
000150 ae 7d 33 3e c7 65 81 bd 33 e8 de bd eb 35 07 3c
       0.17528412 -0.063182406 -0.10884132 0.008252601
000160 77 34 1c bc 24 79 8e 3c d0 f6 c7 b9 06 1f 19 bc
       -0.009533993 0.017391749 -0.00038140127 -0.0093457755
000170 26 00 92 3c cf 28 b9 bc d3 92 e7 3d 97 7a 8f 3d
       0.017822336 -0.022602467 0.11307301 0.07005804
000180 f3 a9 98 bd d8 f6 94 3d 56 d5 62 3a 69 f9 cb 3d
       -0.0745429 0.07273644 0.00086530054 0.099596806
000190 ac 03 98 bc ae 7f 3e 3d c1 4e c4 bc 4c b0 45 bc
       -0.018556438 0.046508484 -0.023963334 -0.012065958
0001a0 a0 e1 09 3d 8f 73 02 bc 2a c3 47 3a bb 00 79 ba
       0.03366244 -0.007962122 0.0007620329 -0.0009498705
0001b0 91 f1 23 bd 91 2a 81 3c e6 91 e9 bc 75 13 dc bc
       -0.040025298 0.015767368 -0.028511953 -0.026864747
0001c0 d0 af ee bb 6a 89 49 bd 41 64 89 3d 81 70 f7 bc
       -0.007284142 -0.049203314 0.06708575 -0.030205013
0001d0 c6 60 59 bc a7 77 1c bb fd b6 12 bd 50 29 a6 bc
       -0.0132677015 -0.002387503 -0.035819042 -0.020283371
0001e0 df e8 16 bd b4 94 65 3d 4d d4 4a bd 45 cc 1f bd
       -0.036843177 0.056050017 -0.049518872 -0.039013166
0001f0 df 95 57 3d e4 38 51 bd c1 d3 44 3b 1f 52 4a 3d
       0.052633163 -0.051079646 0.0030033442 0.049394723
000200 63 6c d6 3c 94 d9 b1 bc 17 24 ac 3c 98 c9 b0 3c
       0.02617473 -0.021710195 0.021013303 0.021580502
000210 42 b6 90 bd 75 18 94 3d 4c e0 75 bd e8 bb a6 3c
       -0.07066013 0.07231227 -0.06002836 0.020353273
000220 f4 c9 4c 3c 6e 7b 44 bc ea a9 f2 3c be d7 97 bc
       0.012499321 -0.011992319 0.029622037 -0.018535491
000230 4d 86 88 bc 6d f8 8b bc 1d 2c 52 bd 0e ee 1b 3c
       -0.016665602 -0.017086232 -0.0513116 0.009517206
000240 7a 71 21 bc 1a 40 25 bd df 88 73 3d 23 34 09 3d
       -0.009853715 -0.040344335 0.059456702 0.033496987
000250 d2 47 33 3d 11 0f af 3c 66 55 96 3c 2b 3c 11 3d
       0.043769665 0.021369489 0.018351268 0.03545777
000260 2e 1f 96 bd cd 14 4d 3c 91 2a 19 bd b4 9e 25 3d
       -0.07330166 0.012517166 -0.03739411 0.040434554
000270 39 ec 01 3c c0 22 0d bd 97 55 1e 3d 7a cd 8d ba
       0.007929855 -0.03445697 0.038655844 -0.0010818683
000280 50 13 52 bc 04 ac 1e bd 4d 9d 67 3d f3 3a 08 3d
       -0.012821987 -0.038738266 0.056546498 0.033259343
000290 f2 7a d1 3a 67 19 aa 3b 6a 69 88 3d 42 d4 fc bd
       0.0015982075 0.0051910165 0.06660731 -0.123451725
0002a0 e2 08 64 3d b9 2a fe bc 9f 49 55 3c 63 92 c9 bb
       0.055672534 -0.031026231 0.013018041 -0.006151484
0002b0 71 8d 46 bc fa 50 99 bc 9d 6d e8 3d b7 08 67 3d
       -0.012118683 -0.01871537 0.11349032 0.056404795
0002c0 46 db 52 be 9d 49 81 3d 2b ba da 3c 0e 9a ae bd
       -0.20591459 0.06312869 0.0267001 -0.08525477
0002d0 d3 63 29 bd 32 de a0 ba ac 3e a0 3c f5 89 7c 3d
       -0.041354965 -0.0012273251 0.019561134 0.061655004
0002e0 a7 42 52 3b 45 2a 8f bd 7c e3 b5 bc ca c3 25 bc
       0.0032083185 -0.06990484 -0.0222032 -0.0101174805
0002f0 8a 4a c7 3c 4b 30 d0 bc 80 83 26 bc be 45 ca 3c
       0.024327535 -0.025413653 -0.010163188 0.024691459
000300 af 13 76 bd 4f f3 2c bc fd 92 6d 3c 81 63 9f bd
       -0.060077365 -0.010556056 0.014500377 -0.07782651
000310 1f e6 8d bc 76 b8 a5 bc 8c f3 05 3c 0a 26 32 bd
       -0.017321644 -0.02022956 0.008175742 -0.043493308
000320 2b 9e d1 3b 47 fb 13 bc 97 3d d5 bc 60 1a 19 3d
       0.006397029 -0.009032077 -0.026030345 0.03737867
000330 ac 05 d2 bc ac 3b bc bc 89 f7 a8 bc fd 5c 21 3d
       -0.02563747 -0.022977673 -0.020625846 0.03939532
000340 8e d4 ad 3d 8f 04 7f bd c4 8d f2 3c 92 ad 55 3d
       0.08487807 -0.062260207 0.029608615 0.052167483
000350 6e 23 db bd 65 38 da 3c 42 c6 b2 3b 03 95 1e bd
       -0.10700117 0.02663822 0.005455763 -0.038716327
000360 5d c0 d2 3c f0 fd bc bc b6 ca 93 bc 7c fe 49 bc
       0.025726492 -0.023070306 -0.018040996 -0.01232874
000370 97 27 02 3c ee b1 f9 ba d7 c0 e2 bb cb 5d 0b 3c
       0.007944009 -0.001905022 -0.006919961 0.008506249
000380 39 9a 0c ba aa da f8 bc 75 72 0e 3d d9 52 9a 3c
       -0.0005363557 -0.030377705 0.034777123 0.018838333
000390 8d 94 88 bd 89 a4 2a 3c 64 6e b6 bc 7c 32 cd bd
       -0.06668959 0.010415205 -0.022269435 -0.10019395
0003a0 f5 b4 da 3c 1b 85 89 3c 6b 8e cf 3b e7 22 36 bc
       0.026697615 0.016787102 0.006334116 -0.01111672
0003b0 40 d8 5f bd f9 29 d2 3c 00 8c 35 bc 86 98 59 bc
       -0.05464959 0.02565478 -0.011080742 -0.013280993
0003c0 24 37 31 bd 4d 56 0d bd 6d b4 ea 3d 5c c7 0d bc
       -0.043265477 -0.03450613 0.11460195 -0.008653488
0003d0 97 9b 8d bc d4 da ae 3d ee 97 5f 3d c2 b0 0a bd
       -0.017286105 0.08537832 0.05458825 -0.033859976
0003e0 d9 e3 b3 3d 26 da 9a bd b6 b4 2e 3c 18 51 e1 3b
       0.08783693 -0.0756114 0.010663202 0.006876122
0003f0 8a 6d 31 bc 6e 13 83 3d a0 40 91 bd 47 3e 7d bc
       -0.010829339 0.0640019 -0.07092404 -0.015456743

input_proj.bias f4 [64]
000000 0c 9a 15 bd 28 c9 3d 3c 54 e8 be bc 46 5d 73 bc
       -0.036523864 0.011583604 -0.023304142 -0.014853781
000010 26 72 15 3c 18 e9 f8 bc d1 6d 92 bc 6e 07 e5 bb
       0.009121453 -0.030384585 -0.01787463 -0.006989411
000020 6c 74 4f 3c 50 55 a7 bc 41 88 9e bc 84 c6 0b 3c
       0.0126620345 -0.020426422 -0.01935208 0.0085312165
000030 b3 9e 63 3b f5 da 1a 3c 65 e4 20 3d c1 4a 9c bd
       0.0034732043 0.0094516175 0.039280314 -0.07631446
000040 08 5c 1c be 4e b7 f1 bc 0f e8 ea 3c f6 bf 89 bd
       -0.15269482 -0.029506352 0.028675107 -0.06726067
000050 b5 8f 23 3d 17 0a b7 3c b3 3e 02 be ce d4 09 3c
       0.03993197 0.022343678 -0.1271923 0.008412553
000060 4f f7 b7 3d f9 b6 50 3d 67 4c 44 bd a1 ea cd 3d
       0.08982717 0.050955746 -0.047924425 0.100545175
000070 d2 35 00 3e c0 d9 d7 3c 10 26 76 be 2e 22 1e bc
       0.12520531 0.026348948 -0.24037957 -0.009651704
000080 af 4c b9 bc 34 ab de bc 2f b7 0e be 43 c2 60 3e
       -0.022619573 -0.027181245 -0.13937066 0.21949105
000090 d9 ef e0 be 27 d0 17 be 24 27 27 bf 03 e3 60 be
       -0.4393299 -0.14825498 -0.652941 -0.21961598
0000a0 ad 20 26 bf 1e 4d 03 bf c7 58 bb be d7 5f 3a bf
       -0.6489361 -0.51289546 -0.3659117 -0.7280249
0000b0 4b 00 e6 be 0b ac 53 bf 94 26 8e be 10 a9 10 bf
       -0.449221 -0.8268439 -0.27763808 -0.5650797
0000c0 dc 78 84 be 53 a3 89 3e f2 8f 3f be 95 95 0f bf
       -0.25873458 0.2688242 -0.18707255 -0.5608762
0000d0 22 25 a7 3c 8f 11 22 bf 7a ed 9b 3d 39 19 03 bf
       0.020403448 -0.6330804 0.076136544 -0.5121036
0000e0 16 17 52 be 0b 99 ce bd ef d3 98 bd c8 b6 e3 3e
       -0.20516619 -0.100877844 -0.07462298 0.4447539
0000f0 95 6d 06 bd dd 99 80 bf 76 a5 86 bd 8e d1 7c bf
       -0.03281935 -1.0046955 -0.06574528 -0.98757255

pos_encoder.pe f4 [1, 513, 64]
000000 00 00 00 00 00 00 80 3f 00 00 00 00 00 00 80 3f
       0.0 1.0 0.0 1.0
000010 00 00 00 00 00 00 80 3f 00 00 00 00 00 00 80 3f
       0.0 1.0 0.0 1.0
000020 00 00 00 00 00 00 80 3f 00 00 00 00 00 00 80 3f
       0.0 1.0 0.0 1.0
000030 00 00 00 00 00 00 80 3f 00 00 00 00 00 00 80 3f
       0.0 1.0 0.0 1.0
000040 00 00 00 00 00 00 80 3f 00 00 00 00 00 00 80 3f
       0.0 1.0 0.0 1.0
000050 00 00 00 00 00 00 80 3f 00 00 00 00 00 00 80 3f
       0.0 1.0 0.0 1.0
000060 00 00 00 00 00 00 80 3f 00 00 00 00 00 00 80 3f
       0.0 1.0 0.0 1.0
000070 00 00 00 00 00 00 80 3f 00 00 00 00 00 00 80 3f
       0.0 1.0 0.0 1.0
000080 00 00 00 00 00 00 80 3f 00 00 00 00 00 00 80 3f
       0.0 1.0 0.0 1.0
000090 00 00 00 00 00 00 80 3f 00 00 00 00 00 00 80 3f
       0.0 1.0 0.0 1.0
0000a0 00 00 00 00 00 00 80 3f 00 00 00 00 00 00 80 3f
       0.0 1.0 0.0 1.0
0000b0 00 00 00 00 00 00 80 3f 00 00 00 00 00 00 80 3f
       0.0 1.0 0.0 1.0
0000c0 00 00 00 00 00 00 80 3f 00 00 00 00 00 00 80 3f
       0.0 1.0 0.0 1.0
0000d0 00 00 00 00 00 00 80 3f 00 00 00 00 00 00 80 3f
       0.0 1.0 0.0 1.0
0000e0 00 00 00 00 00 00 80 3f 00 00 00 00 00 00 80 3f
       0.0 1.0 0.0 1.0
0000f0 00 00 00 00 00 00 80 3f 00 00 00 00 00 00 80 3f
       0.0 1.0 0.0 1.0
000100 a4 6a 57 3f 41 51 0a 3f ce 7a 2e 3f b0 54 3b 3f
       0.84147096 0.54030234 0.68156135 0.731761
000110 ba 7d 08 3f 0d 94 58 3f f1 90 d1 3e c6 92 69 3f
       0.53316844 0.8460091 0.40930894 0.91239583
000120 3e 39 9f 3e 6b 4e 73 3f 25 8f 70 3e f1 d5 78 3f
       0.3109836 0.9504153 0.23492105 0.9720145
000130 3a 23 35 3e 83 f6 7b 3f f3 25 08 3e 28 ba 7d 3f
       0.17689219 0.9842302 0.13295726 0.99112177
000140 76 75 cc 3d 98 b8 7e 3f 36 6f 99 3d d1 47 7f 3f
       0.099833414 0.9950042 0.07491915 0.9971896
000150 ae 36 66 3d 68 98 7f 3f fa ac 2c 3d bd c5 7f 3f
       0.05620449 0.9984193 0.04215715 0.999111
000160 5b 81 01 3d 3c df 7f 3f a5 3e c2 3c 93 ed 7f 3f
       0.031617504 0.99950004 0.023711512 0.99971884
000170 42 ab 91 3c a3 f5 7f 3f 49 7a 5a 3c 2c fa 7f 3f
       0.017781857 0.99984187 0.013334819 0.99991107
000180 57 d6 23 3c b9 fc 7f 3f 16 b9 f5 3b 28 fe 7f 3f
       0.009999833 0.99995 0.0074988706 0.99997187
000190 5a 44 b8 3b f7 fe 7f 3f 5a 2e 8a 3b 6b ff 7f 3f
       0.0056233825 0.9999842 0.0042169513 0.9999911
0001a0 1c 3e 4f 3b ac ff 7f 3f 03 69 1b 3b d1 ff 7f 3f
       0.0031622713 0.999995 0.0023713715 0.9999972
0001b0 20 15 e9 3a e6 ff 7f 3f 8b c9 ae 3a f1 ff 7f 3f
       0.0017782785 0.99999845 0.0013335211 0.9999991
0001c0 6d 12 83 3a f8 ff 7f 3f 89 94 44 3a fb ff 7f 3f
       0.0009999998 0.9999995 0.000749894 0.9999997
0001d0 13 6a 13 3a fd ff 7f 3f 21 17 dd 39 ff ff 7f 3f
       0.0005623411 0.9999998 0.00042169637 0.99999994
0001e0 61 cb a5 39 ff ff 7f 3f 0d a8 78 39 00 00 80 3f
       0.00031622782 0.99999994 0.00023713727 1.0
0001f0 53 77 3a 39 00 00 80 3f 6d d4 0b 39 00 00 80 3f
       0.00017782794 1.0 0.00013335208 1.0
000200 b7 c7 68 3f 33 11 d5 be d9 5a 7f 3f 53 4d 91 3d
       0.9092974 -0.41614684 0.99748 0.070948265
000210 0a f2 66 3f b2 e8 dc 3e 12 35 3f 3f 02 39 2a 3f
       0.9021307 0.43146282 0.74690354 0.66493237
000220 1b 54 17 3f ec 7b 4e 3f b5 d3 e9 3e 69 be 63 3f
       0.5911271 0.8065784 0.45669332 0.8896242
000230 f6 47 b2 3e a6 fa 6f 3f 82 f0 86 3e f5 f2 76 3f
       0.34820527 0.93741834 0.26355368 0.96464473
000240 f8 6f 4b 3e a5 e5 7a 3f d3 00 19 3e 4f 20 7d 3f
       0.19866931 0.9800666 0.1494172 0.98877424
000250 86 d9 e5 3d f3 61 7e 3f ae 85 ac 3d 0e 17 7f 3f
       0.1122313 0.9936821 0.08423935 0.99644554
000260 c8 70 81 3d f9 7c 7f 3f aa 30 42 3d 4e b6 7f 3f
       0.063203394 0.9980007 0.04740969 0.9988755
000270 5c a5 11 3d 8e d6 7f 3f 50 75 da 3c b1 e8 7f 3f
       0.03555809 0.9993676 0.026667267 0.99964434
000280 3e d4 a3 3c e5 f2 7f 3f 51 b7 75 3c a1 f8 7f 3f
       0.019998666 0.9998 0.014997319 0.9998875
000290 9b 43 38 3c db fb 7f 3f 0a 2e 0a 3c ab fd 7f 3f
       0.011246587 0.99993676 0.008433828 0.9999644
0002a0 d8 3d cf 3b b1 fe 7f 3f e7 68 9b 3b 43 ff 7f 3f
       0.006324511 0.99998003 0.00474273 0.99998873
0002b0 08 15 69 3b 96 ff 7f 3f 80 c9 2e 3b c4 ff 7f 3f
       0.0035565514 0.9999937 0.0026670396 0.9999964
0002c0 68 12 03 3b df ff 7f 3f 85 94 c4 3a ed ff 7f 3f
       0.0019999985 0.99999803 0.0014997876 0.99999887
0002d0 12 6a 93 3a f5 ff 7f 3f 1f 17 5d 3a fa ff 7f 3f
       0.0011246821 0.99999934 0.0008433926 0.99999964
0002e0 60 cb 25 3a fd ff 7f 3f 0c a8 f8 39 fe ff 7f 3f
       0.0006324556 0.9999998 0.0004742745 0.9999999
0002f0 53 77 ba 39 ff ff 7f 3f 6d d4 8b 39 00 00 80 3f
       0.00035565588 0.99999994 0.00026670416 1.0
000300 c3 81 10 3e 26 70 7d bf de 3c 47 3f ce bf 20 bf
       0.14112 -0.9899925 0.7782725 -0.6279267
000310 d7 45 7e 3f ab 7f ed bd 63 21 74 3f 63 18 9a 3e
       0.9932532 -0.11596616 0.95363444 0.3009673
000320 c2 09 50 3f 58 2f 15 3f b7 24 27 3f a2 e7 41 3f
       0.8126489 0.58275366 0.652904 0.7574407
000330 6c 2f 02 3f 29 6d 5c 3f a7 68 c7 3e 37 c9 6b 3f
       0.5085361 0.86104065 0.3894703 0.92103904
000340 6c 4e 97 3e ef 90 74 3f e2 6d 64 3e 92 8c 79 3f
       0.2955202 0.9553365 0.22307542 0.9748012
000350 d7 ee 2b 3e 9e 5d 7c 3f 2c 33 01 3e 43 f4 7d 3f
       0.16790329 0.9858035 0.12617177 0.9920084
000360 c0 ff c1 3d 4f d9 7e 3f 06 93 91 3d 3a 5a 7f 3f
       0.094726086 0.99550337 0.071081206 0.9974705
000370 4e 69 5a 3d c3 a2 7f 3f c5 d1 23 3d 90 cb 7f 3f
       0.053323083 0.9985773 0.039994974 0.99919987
000380 1f b9 f5 3c 83 e2 7f 3f 47 47 b8 3c 6b ef 7f 3f
       0.0299955 0.99955004 0.022494925 0.999747
000390 c6 31 8a 3c ad f6 7f 3f 46 44 4f 3c c1 fa 7f 3f
       0.016869437 0.9998577 0.012650555 0.99991995
0003a0 0d 6e 1b 3c 0d fd 7f 3f 13 1d e9 3b 58 fe 7f 3f
       0.009486687 0.999955 0.0071140616 0.9999747
0003b0 a8 cf ae 3b 11 ff 7f 3f 13 17 83 3b 7a ff 7f 3f
       0.005334813 0.99998575 0.0040005534 0.999992
0003c0 92 9b 44 3b b5 ff 7f 3f 60 6f 13 3b d6 ff 7f 3f
       0.0029999954 0.9999955 0.0022496805 0.9999975
0003d0 17 1f dd 3a e8 ff 7f 3f 56 d1 a5 3a f3 ff 7f 3f
       0.0016870227 0.99999857 0.0012650888 0.9999992
0003e0 10 b1 78 3a f9 ff 7f 3f 09 7e 3a 3a fc ff 7f 3f
       0.00094868336 0.9999996 0.00071141176 0.99999976
0003f0 7e d9 0b 3a fe ff 7f 3f a4 be d1 39 ff ff 7f 3f
       0.0005334838 0.9999999 0.00040005625 0.99999994

attention_blocks.0.attention.in_proj_weight f4 [192, 64]
000000 d4 ea 9b bd 25 ea db 3c b9 9d b2 bc ce b6 91 3c
       -0.07613149 0.026845047 -0.021803724 0.017787363
000010 e8 61 04 bd cb d9 3a bd 67 3e ec 3a c0 85 bf 3a
       -0.032319933 -0.04561786 0.0018023968 0.0014612004
000020 cd 14 f8 3c d3 8e e5 bb c6 3a 84 3d 07 05 7e 3c
       0.030283356 -0.0070055514 0.06456523 0.015504128
000030 1b 37 aa 3b 75 c5 42 bb b5 cd 0f be 80 e7 d2 bc
       0.0051945574 -0.0029719744 -0.14043315 -0.025745153
000040 86 77 5a 3e ff 91 1f 3e 45 e9 c0 be b2 76 16 3e
       0.21334657 0.15583037 -0.3767797 0.14693716
000050 6d 55 20 3d 41 e4 45 be c8 30 02 3e 72 47 88 bd
       0.03914397 -0.19325353 0.12713921 -0.06654252
000060 0b 5f a7 3c d8 3c 05 bd 72 41 61 bd 1c 19 0a be
       0.020431062 -0.03252873 -0.054994054 -0.13486141
000070 c2 64 39 3e 87 92 00 3e 6c 52 95 be 0b c1 af 3e
       0.18104842 0.12555896 -0.29164445 0.34326968
000080 55 e1 63 be 49 30 17 3e f8 8f 4d 3d 41 93 53 bd
       -0.22253926 0.14764513 0.050186127 -0.051654104
000090 e2 bc f4 3d 56 cd 7f bd 17 14 6f bc 83 f2 83 bd
       0.11950089 -0.062451683 -0.014592192 -0.0644274
0000a0 97 aa e0 3c 7d 8d ae 3c 90 dc 66 3e 3a 0a e3 3c
       0.027425094 0.021307701 0.22545075 0.027714837
0000b0 cd 45 75 3e aa a4 8b 3d df f4 46 3e 43 b9 fa 3d
       0.23952408 0.068185166 0.19429348 0.12242367
0000c0 c0 ad 7b 3e 69 12 83 3d 7a 4f d4 bc 26 16 88 3d
       0.24577999 0.06399996 -0.025916804 0.066448495
0000d0 c9 e9 e6 bd d1 84 7c 3e 10 d8 44 be 25 69 e7 3d
       -0.1127506 0.2466004 -0.19223046 0.112993516
0000e0 4e 8e 3c 3d 69 24 80 3e ce 1b cb bc 48 e1 6c 3e
       0.04603415 0.2502778 -0.024793532 0.23132813
0000f0 ed f0 9d 3e 13 51 fb bb 49 f6 d5 3d 11 c3 61 3d
       0.30847874 -0.007669577 0.10447366 0.05511767
000100 03 a3 b0 bc 00 15 56 bc 5c 54 c2 3d 21 bb fe 3c
       -0.021562105 -0.01306653 0.094887465 0.03109509
000110 31 83 91 bc d1 03 e9 3c e5 da fb 3c e9 5b 77 bc
       -0.017762752 0.028444203 0.030744025 -0.015097597
000120 80 4c 68 bd 3e da 86 3d 60 7e 99 3d aa 4e bb bd
       -0.05671358 0.06584595 0.07494807 -0.09145863
000130 e8 3c 2c 3d 0d a7 81 bc 64 f2 c7 bd 1a 0d 49 3e
       0.042050272 -0.015826726 -0.09763029 0.19633904
000140 9a 99 51 3e 9d 48 01 bd 46 92 5a bd d5 22 c5 3d
       0.2046875 -0.03156339 -0.053362153 0.09625784
000150 d3 1a 13 be 63 0f b4 3d e9 2c 1a 3b 58 ee 78 bc
       -0.14365701 0.08791997 0.0023525304 -0.015193544
000160 12 8b 4f 3e 60 b9 78 3d 79 55 3f be 32 38 29 be
       0.20267895 0.060723662 -0.18684949 -0.16525343
000170 36 23 81 3d 61 a2 3d be e9 ed 8c 3e 7f 5f 08 3e
       0.06305544 -0.18518974 0.2752526 0.13317679
000180 e5 4b 2b be f8 83 42 3e 92 05 83 3e 2a cf 68 3e
       -0.1672817 0.18995655 0.25590187 0.22735277
000190 bb 63 1c 3e a6 59 fc 3a b9 5d a1 bd b8 d5 75 3d
       0.15272419 0.0019252792 -0.07879204 0.06001827
0001a0 c6 6a 6e bc 79 64 70 bd e0 2b 4e bb c2 5f dc bc
       -0.014551824 -0.05868957 -0.0031459257 -0.02690113
0001b0 f3 a8 21 bc 9a 99 ec bc 74 c5 a5 3d a1 4f 38 bc
       -0.009866941 -0.028881837 0.08094302 -0.011249454
0001c0 b5 fe 7e 3d 17 b5 d0 bd e6 21 f4 bc 3b 28 82 be
       0.062254626 -0.1019079 -0.02980132 -0.25421318
0001d0 61 e8 8a 3d 93 7f 65 be a2 5b 85 be e6 0f be be
       0.06782604 -0.22411947 -0.26046473 -0.37121505
0001e0 9a 21 17 3e 47 82 a8 be c9 4d 3b 3d fb 8a 94 3e
       0.14758912 -0.32911894 0.04572848 0.29012284
0001f0 0d 52 97 3d 33 9f 71 3d 9f 04 10 bd be c5 a4 3c
       0.07388697 0.058989715 -0.035160657 0.020113822
000200 44 9a ef 3c 2f ce d9 3c 56 85 dc 3c 81 7a dc bd
       0.029248364 0.026587574 0.026919048 -0.10765553
000210 8b 01 c3 3b 5f 82 8d 3c 40 61 dc bc 04 f3 37 3d
       0.0059511117 0.01727408 -0.026901841 0.044909492
000220 76 6f 8a 3c a7 df 78 bc 6a 1a dd 3b e1 01 6f 3d
       0.016898852 -0.015190042 0.0067475336 0.0583514
000230 07 61 93 ba da 87 a8 bd 32 90 07 3e fb 38 f4 3c
       -0.0011244126 -0.08229037 0.132386 0.029812327
000240 3d 42 f4 bd 2c 9e 15 3d ba 99 62 be c9 7a 26 be
       -0.119266964 0.036527798 -0.22128955 -0.16257776
000250 7e cc e5 3d eb 0d dd 3e 6e f4 71 3e 8f a0 fd 3d
       0.112206444 0.4317468 0.23628399 0.1238414
000260 85 ea 34 3e c3 2b 4e be 15 2d 57 be b9 bf 05 be
       0.17667587 -0.20133881 -0.21013291 -0.13061418
000270 fe d0 a6 be c6 2c 8e bd 2a ce 3e be 47 95 13 3e
       -0.32581323 -0.069421336 -0.18633333 0.14412414
000280 b4 00 a3 bc bf 28 25 be cf 8a 02 3e e7 1b 9f 3e
       -0.019897796 -0.16128825 0.12748264 0.31075975
000290 5f 72 b2 3d 40 71 91 bc 2f 12 11 bd 68 9f e4 bd
       0.08713221 -0.017754197 -0.03541773 -0.11163217
0002a0 00 cd e8 3c 91 8b d8 bd 9b 88 3d 3e bf 80 04 3d
       0.028418064 -0.10573495 0.18509142 0.032349344
0002b0 3b 02 b3 3d 7e b1 20 bc 3c 84 82 3e 0d 5a 2a 3d
       0.0874066 -0.009807942 0.25491512 0.041589785
0002c0 53 44 5e 3e ba 7a cf bc 1e 88 09 bd c3 be 37 bd
       0.21705751 -0.025327075 -0.033577077 -0.04485966
0002d0 1e 93 4c bc 76 01 49 bd 55 07 40 bc 91 f6 62 be
       -0.012486247 -0.04907366 -0.011720498 -0.2216437
0002e0 9d 2e 8f 3e 94 b5 6c 3e b0 9b 3a bd 89 bc 62 be
       0.2796525 0.23116142 -0.04555863 -0.22142233
0002f0 4c 26 56 3e 80 44 89 3d 99 05 33 bc e7 bd ff 3d
       0.20913047 0.067025185 -0.010926628 0.12487393
000300 7a 18 da 3c e9 0e ad bd 6a 61 0e bd 76 2a 10 3d
       0.026623 -0.084501095 -0.03476087 0.035196744
000310 c2 3c a0 bd 10 06 46 bd 9f a4 4c bc 4c 01 11 3d
       -0.07824089 -0.048345625 -0.012490421 0.035401627
000320 7f cc 3b bd 90 aa 23 3e d1 25 90 bc 95 47 2d 3e
       -0.04584932 0.15983033 -0.017596157 0.16921838
000330 2a bf ee bd 13 0e 84 bd e4 f4 f8 bd 61 ee f5 3d
       -0.116575554 -0.06447997 -0.12156084 0.12008358
000340 f5 e9 07 3e cb fb 66 bd 1b 08 8e 3e 14 a1 87 3e
       0.13272841 -0.056392472 0.2774056 0.2649008
000350 ea 43 cc be 67 68 92 3e a5 ef 5a be f4 60 3a 3c
       -0.39895564 0.28595278 -0.2138048 0.0113756545
000360 06 e0 76 be 52 1f 07 bd 7d c4 a8 3c 12 c3 74 bd
       -0.24108896 -0.032988854 0.020601505 -0.059756346
000370 62 ac dd bd a4 4f 5c bd ad 7a 8c 3c b1 e7 12 bd
       -0.10823895 -0.05378689 0.01714834 -0.03586549
000380 9a af 04 bd 13 15 7f be 45 8d 36 bd 8e 32 c1 3a
       -0.03239403 -0.24910383 -0.04456832 0.0014739798
000390 90 69 7d bd 59 c8 5b be 7a 06 bb bd 41 02 9f bd
       -0.06186825 -0.21463145 -0.09132095 -0.07764102
0003a0 64 d3 42 bd 1b 24 0e be f7 2c cb 3d 63 99 49 bc
       -0.04756488 -0.1388096 0.09920686 -0.012304637
0003b0 ec 28 13 be 26 ea 50 3c 77 bb 66 3b 8b 03 32 3e
       -0.14371079 0.012751138 0.0035206953 0.17384164
0003c0 ec 4a 86 3c 9c 6d 44 3d ec 0c 2f be 50 4a c2 bd
       0.016393147 0.047956094 -0.17094773 -0.0948683
0003d0 0f 19 24 3e 52 4d b9 bd cb 81 8b bd e6 d9 13 be
       0.16025184 -0.09047951 -0.068118654 -0.1443859
0003e0 f5 1a 81 3d 37 5e ef 3d 35 4e d9 3d 3c c3 12 bd
       0.0630397 0.11687892 0.1061062 -0.03583072
0003f0 27 42 81 bc 3b 79 56 3e 3c 77 d3 3c cc ce 91 3d
       -0.015778614 0.20944683 0.025813691 0.071195215

attention_blocks.0.attention.in_proj_bias f4 [192]
000000 15 6e a5 3e 87 94 90 be a9 46 df bd 84 7d 3e bd
       0.32310548 -0.28238317 -0.10902149 -0.04650642
000010 6f 1d c3 bb 1e 68 6f 3d 9e 58 60 be 61 48 2b 3d
       -0.0059544365 0.058448903 -0.21908805 0.041817073
000020 fd f2 40 3d 2d 6f 17 3e b9 42 3b be c3 59 a2 3d
       0.04710673 0.14788504 -0.18287171 0.07927277
000030 dc ad b4 3c ac b5 1b 3d ef fb 7e bc 19 8d 1e bd
       0.022055559 0.038015053 -0.015562995 -0.03870878
000040 2f 2c 35 bd 49 46 64 bd eb 1e 40 bb 35 ed bc bc
       -0.04423159 -0.05573109 -0.0029315304 -0.023062328
000050 3f 4d 0b bf 46 a8 cc bc 28 13 33 3e 95 6e e6 be
       -0.54414743 -0.024982583 0.17487776 -0.45006242
000060 8d da 24 be 03 3e 17 be ce 58 e5 bc 31 14 90 ba
       -0.16098996 -0.1476975 -0.027996447 -0.0010992346
000070 3b 36 14 3d 1d 35 05 3f b4 cf 5e 3b b3 db e9 3b
       0.03618453 0.5203417 0.0033998312 0.007136786
000080 c0 7b d6 3c 4a 3e b4 3e 82 29 c9 bd 5d b0 c5 bc
       0.026182055 0.35203773 -0.0982237 -0.024131948
000090 16 92 15 3e 04 c4 d2 bc 69 ca b6 3d f6 56 8e 3e
       0.14606509 -0.025728233 0.089253254 0.2780072
0000a0 1d 0d cb 3d e3 f1 a3 bd c6 e6 0f 3e 92 d4 7f 3c
       0.099146105 -0.080051206 0.14052877 0.015614646
0000b0 83 2a 20 3d aa a2 45 bc 8f a7 8e ba d3 12 5f 3f
       0.039103042 -0.012062708 -0.0010883677 0.871381
0000c0 dc b3 07 be e3 85 e6 3d bd 14 15 3e 6c e9 96 bd
       -0.13252205 0.112560056 0.14558692 -0.073687404
0000d0 e3 95 25 bd 4b ed 04 3d eb 62 e8 b9 d0 ef 0c 3e
       -0.040426146 0.032452863 -0.00044324188 0.13763356
0000e0 44 67 cd 3d 23 e2 d5 be 35 95 f8 3c 4f ef 40 bd
       0.10029462 -0.4177409 0.030344585 -0.047103222
0000f0 11 4b 3e 3e aa cf 42 3d 64 3e aa bd 30 1a 70 3f
       0.18583323 0.047561325 -0.08312681 0.9378996
000100 f8 dc 08 38 e6 1b eb b7 0c d7 7c b7 9d dc 52 37
       3.263072e-05 -2.8027174e-05 -1.507044e-05 1.2568341e-05
000110 a1 87 d8 36 f1 69 a5 b6 b1 22 10 38 ec 87 85 37
       6.453091e-06 -4.9297164e-06 3.4364584e-05 1.5918129e-05
000120 f0 c8 64 37 1f 7a 05 38 30 13 d2 37 1f 78 ca b7
       1.3636643e-05 3.1823405e-05 2.5042886e-05 -2.4136212e-05
000130 47 48 12 b7 88 e5 48 b8 25 8a 51 b6 3b 34 49 b7
       -8.7191065e-06 -4.7897483e-05 -3.1223838e-06 -1.1992694e-05
000140 aa 99 1b 35 bd c5 c6 37 3a 9b 2d b7 86 84 e3 36
       5.796561e-07 2.3695518e-05 -1.0347745e-05 6.780555e-06
000150 42 0b 6a b8 79 92 0a 37 e7 5c 56 38 06 10 79 b8
       -5.5800432e-05 8.259544e-06 5.1108098e-05 -5.938115e-05
000160 01 4e 19 b8 a3 11 85 b5 37 77 c3 37 ca 13 26 b8
       -3.655069e-05 -9.914405e-07 2.3301325e-05 -3.9595914e-05
000170 91 f8 3a b6 14 ca b6 b7 e0 d8 f0 34 21 56 9d b6
       -2.7860845e-06 -2.179019e-05 4.486128e-07 -4.6889913e-06
000180 5a f3 a4 37 b4 b9 d0 b6 18 12 0a b7 b6 2a d3 37
       1.9663643e-05 -6.2205017e-06 -8.229654e-06 2.5173049e-05
000190 e8 f0 32 37 94 d5 2e b8 7e 61 e5 b8 03 f5 a9 b8
       1.0665717e-05 -4.1683743e-05 -0.0001093773 -8.104185e-05
0001a0 39 f9 8b b7 38 9a 0b 38 55 43 40 37 eb 22 34 b7
       -1.6686145e-05 3.328381e-05 1.1459769e-05 -1.0736966e-05
0001b0 35 b5 53 b6 0e 88 aa 37 81 88 d2 37 8c 7f 48 b9
       -3.1546926e-06 2.0328935e-05 2.5097515e-05 -0.00019121001
0001c0 00 e7 00 38 c3 8b d1 36 18 4d 4c 36 0b 21 2b 38
       3.0732714e-05 6.244956e-06 3.0443243e-06 4.080035e-05
0001d0 ab 8d 54 35 39 79 3e 38 be cf 9b 37 69 01 93 37
       7.918231e-07 4.5412427e-05 1.8574177e-05 1.7524422e-05
0001e0 12 b4 62 38 e2 4f bc b6 70 52 c1 36 9a e0 05 b7
       5.4050302e-05 -5.612136e-06 5.761445e-06 -7.979712e-06
0001f0 c0 9d 30 38 24 97 35 36 4e d3 40 b7 7a 92 37 b9
       4.2108586e-05 2.7059077e-06 -1.149329e-05 -0.00017506807
000200 60 6d 2e 3c 86 f5 75 3d 12 eb fb bc fc 5a 66 bd
       0.010646194 0.060048603 -0.030751739 -0.056239113
000210 ee e0 e8 bc d1 5b 9b 3d 29 99 fb bd 2e 5b f3 3c
       -0.028427567 0.07585872 -0.12285072 0.029706564
000220 5b 69 e8 ba ed e9 83 3d c5 43 b7 3c 10 ef 17 3e
       -0.0017731594 0.06441102 0.022371182 0.14837289
000230 c9 29 9f 3d bf 16 04 3d f5 96 f0 bc bf 51 e1 bc
       0.07771642 0.032248255 -0.029368857 -0.0275048
000240 e5 68 9f be 82 dc b7 bd 71 43 c5 3d 20 7a 31 3e
       -0.31134716 -0.089776054 0.09632004 0.17331743
000250 95 f3 00 be 35 4e fc 3c 97 87 bd 3c 6a 1d a7 bd
       -0.12592919 0.03079901 0.023135943 -0.08159907
000260 46 55 88 3e cc 40 6f 3e 00 37 9d bd 0a 79 9d 3d
       0.26627558 0.23364562 -0.07676506 0.07689102
000270 57 f6 f2 3d 91 b2 b1 3d ef 4e 02 3e 93 e6 84 bd
       0.11863392 0.08676637 0.12725423 -0.06489291
000280 54 31 c7 bd fc ca f2 bd aa 13 51 3d d1 9f 30 3d
       -0.097262055 -0.118551224 0.051044144 0.043121163
000290 28 ee 13 bb f5 41 8e bd d5 60 90 3c 02 6e 8f 3e
       -0.0022572372 -0.06946174 0.017624298 0.28013617
0002a0 88 59 d6 bc b4 30 4c 3c ec 20 12 be e1 62 e8 bd
       -0.026165739 0.012462784 -0.14270371 -0.11346985
0002b0 d7 e7 3d 3d 7c 4a 45 3d 90 61 80 bd f9 c2 2e 3e
       0.046363678 0.048166737 -0.062686086 0.17066564
0002c0 40 6e 6c 3c 47 ea 66 3d ac 04 ae bc 89 ba 88 bb
       0.0144305825 0.056375768 -0.021242462 -0.0041726273
0002d0 c6 6f bf 3d 2f 83 b9 bd e4 aa 8a 3d e3 37 d3 bd
       0.09347491 -0.090582244 0.06770876 -0.10313394
0002e0 49 05 9b bd 52 f8 bc 3b de 62 83 bc 55 0a d4 bc
       -0.075693674 0.005766907 -0.016038354 -0.025883833
0002f0 5b b5 9f 3d cf 7a 14 be 5f 57 85 3d b7 e4 06 be
       0.07798263 -0.14499973 0.06510805 -0.13173185

attention_blocks.0.attention.out_proj.weight f4 [64, 64]
000000 57 b7 07 3e 19 38 63 be 67 c5 9d 3e 6d 32 4c 3e
       0.13253532 -0.22189368 0.3081467 0.19941111
000010 65 73 15 3f 81 c6 6a bc 99 61 a0 bd 6b 42 69 be
       0.58379203 -0.014329554 -0.07831115 -0.22779243
000020 d6 9f 35 bc 08 6e af be 6c c8 2e 3d cb ad 27 3f
       -0.011085471 -0.34263635 0.042671606 0.6549956
000030 66 b8 af 3d 75 70 6c 3e 55 03 9e 3e 6d af 00 3e
       0.08580093 0.23089774 0.30861917 0.1256692
000040 72 3e 09 3e 56 ba ff bd 95 48 91 bc d9 ae a9 3d
       0.13402727 -0.12486713 -0.017734805 0.08285303
000050 c1 9e d3 bd ef a7 5a 3e a1 4a 23 bc d5 ec b0 3e
       -0.10333014 0.21353124 -0.009966523 0.34555689
000060 0f 30 99 3c 15 a0 7d bd b3 f8 9b 3e fb b8 89 3e
       0.018699674 -0.061920244 0.3046318 0.2689894
000070 0f ed ba 3c 72 1d 88 3e da 16 c0 3b 0a 5c 91 bd
       0.022818116 0.26584965 0.005862099 -0.07097633
000080 76 fa 8d be f7 50 20 3e 92 8e cb 3e c1 68 9d be
       -0.2773015 0.15655886 0.3975721 -0.30743983
000090 ac a6 81 be df 12 83 3b 03 74 86 3c 0c 04 14 be
       -0.25322473 0.0040000523 0.01641274 -0.14454669
0000a0 cf f5 84 3e e1 bf 0d bb 09 8b 00 3e 15 8c 64 3f
       0.25968787 -0.0021629261 0.12553038 0.8927625
0000b0 0c 9a d0 b9 2c e3 5b bd 7d 55 e5 be 9a 09 0c 3f
       -0.00039787625 -0.053683445 -0.44791785 0.5470215
0000c0 c3 19 ef bd 42 0a 8d bc 00 5f 55 be 55 3d 26 3e
       -0.116748355 -0.017216805 -0.20837021 0.16234334
0000d0 a8 58 1b 3d 9d 15 3e 3e 57 e1 33 bd 33 8a 80 be
       0.037926346 0.18562932 -0.043916073 -0.25105438
0000e0 4d fe ce 3d 5e bb a1 be 72 96 16 bd 03 a6 c1 be
       0.10107098 -0.31588262 -0.03676457 -0.3782197
0000f0 4c 59 89 3e 0b 4a f3 bd 98 c7 e4 3e 61 60 41 3e
       0.2682594 -0.11879357 0.44683528 0.18884422
000100 ba 39 a8 bd 44 1c 15 bc 72 65 25 3d d2 ae aa 3d
       -0.082141355 -0.009100977 0.04037995 0.083341256
000110 9a b5 45 bd 71 99 9c 3d 78 97 ef bd fc bc aa bd
       -0.048268892 0.07646454 -0.11698812 -0.08336827
000120 e4 a8 f1 3d 7b 26 27 be 71 52 b5 3c f6 6a 7d be
       0.117997915 -0.16323273 0.022134038 -0.24747834
000130 e3 31 a7 bd c3 1a 01 bd 03 29 c4 3c 5d ba ce bd
       -0.08163812 -0.031519663 0.023945337 -0.1009414
000140 04 98 60 be 18 22 3c 3e 27 09 7d bd 07 8c 87 3c
       -0.2193299 0.1837238 -0.061776306 0.016546262
000150 0f a1 ec 3c a6 fc 73 be bb 23 ed 3d 08 1a 5f bd
       0.028885392 -0.23826846 0.11579081 -0.054468185
000160 b6 45 80 3d 51 21 67 bd 98 e6 80 3e 4a 0e 9f 3d
       0.06263296 -0.056428257 0.2517593 0.07766397
000170 a0 0d 4d be d4 f8 e0 bd 44 db 57 3d 62 ce 15 3d
       -0.20024729 -0.1098496 0.052699342 0.036573775
000180 7d 1d ce 3c f2 a6 50 be f6 ac 27 be a9 de 0c 3e
       0.025160545 -0.20376185 -0.16374573 0.13756813
000190 96 58 5f be 7a c4 23 be ba b2 30 3d 2e 10 74 bb
       -0.21811137 -0.15992919 0.043139197 -0.003724109
0001a0 a8 ac c1 3c 97 4c 1a bd 08 46 84 3b 25 a2 11 be
       0.0236419 -0.037670698 0.0040366687 -0.1422201
0001b0 fe 44 99 bd a0 a4 d1 bc d7 16 0b 3e 39 b1 fd 3d
       -0.07483862 -0.025591195 0.13582931 0.12387318
0001c0 66 97 b5 3d 5e 2b 1b bd 6a 78 48 bc d3 c1 c4 3d
       0.088667676 -0.037883155 -0.01223574 0.096072815
0001d0 cb 9d b5 bd d6 34 26 bd 35 b9 6c be c5 6f 85 be
       -0.08867987 -0.040577732 -0.23117526 -0.26061836
0001e0 94 5d 00 be 79 61 b9 bd b9 9d 17 3f eb 77 9c 3d
       -0.12535697 -0.090517946 0.5922504 0.0764006
0001f0 20 36 9f bd 88 09 a0 bd f0 84 02 bd 10 df 67 3c
       -0.077739954 -0.07814318 -0.03186506 0.014152303
000200 07 7a 86 3c 4c d7 a4 bd d2 e7 d2 bd 8d e3 1e be
       0.016415609 -0.08048877 -0.102981225 -0.15516491
000210 7d 2f 34 be 19 14 c3 bd 14 b4 70 bc d1 54 6a 3d
       -0.1759624 -0.09525318 -0.0146913715 0.057209793
000220 7a c4 65 bd 91 6f 9f 3d 5b 16 17 be 36 11 4e 3e
       -0.056095578 0.077849515 -0.14754622 0.20123753
000230 20 da 31 bd b0 8d 23 be 4b 4b 3b be 2f f2 08 3e
       -0.04342091 -0.15972018 -0.1829044 0.13373636
000240 dd 6f 8a 3e 87 73 a9 bd d4 0b 5c 3d 4a d2 44 be
       0.2703847 -0.08273988 0.053722218 -0.19220844
000250 d5 9b 67 bd 2e c3 62 be d9 b9 03 be de 7f 19 3d
       -0.056545097 -0.22144768 -0.12863864 0.03747546
000260 0d 76 3a 3e 8d a3 56 3d 12 79 02 3d c1 e0 b5 3c
       0.18209095 0.052402068 0.031853743 0.022201898
000270 f1 2a 6c bc 81 34 12 3e 28 78 35 be 94 77 a6 bc
       -0.014414535 0.14277841 -0.17721617 -0.020320691
000280 92 ec d4 3d b9 96 91 bd d8 16 09 3e 89 d3 2b be
       0.10396685 -0.07108826 0.1338762 -0.16779913
000290 ae 81 4f 3c 0d 5d a6 3d 8d 41 04 be e5 bd 22 3e
       0.012665195 0.08123217 -0.1291563 0.15892752
0002a0 dd 67 09 be 81 ae 24 be a1 2c 34 3d f4 0b ac 3c
       -0.13418527 -0.16082193 0.043987874 0.021001793
0002b0 0e 0e b8 3c 7f bb 9c 3d 2a 91 f4 bd de 08 9d 3d
       0.02246764 0.076529495 -0.1194175 0.07667707
0002c0 c8 9b 7e 3c ae d9 2f 3e 51 f6 5d 3e bc ab de bd
       0.015540071 0.17172882 0.21675994 -0.108725995
0002d0 6a 76 75 be 5c 9e f4 bd 64 5b 58 3e 8f c6 32 bc
       -0.23970953 -0.11944267 0.21128613 -0.010911598
0002e0 1f 64 ae 3c d5 56 f8 3d 38 ec 5a bd 9d eb 2d 3d
       0.021287976 0.12125937 -0.053447932 0.042461026
0002f0 95 82 1d 3d 7f 60 27 be 1a 31 a1 3e 18 bb 74 bd
       0.03845461 -0.16345404 0.31482774 -0.05974874
000300 eb 75 fe 3d 2c 25 0f 3e fe db 24 3e 11 2d ef 3c
       0.12424835 0.13979024 0.16099545 0.029196294
000310 a0 b3 ec bc 80 9e ed bd 6b 5e 6c 3e 12 b5 bd bd
       -0.028894246 -0.11602497 0.23082893 -0.09263052
000320 9d 0f 46 bd 96 ea 4e 3e 59 8d 00 3e ab 0d 33 3e
       -0.048354734 0.20206675 0.1255392 0.17485683
000330 de a1 f8 3c c2 47 03 3e f1 13 5b bd 0b b0 72 3e
       0.030350622 0.12820342 -0.053485814 0.23699968
000340 36 3d 26 be ba 45 a0 bd 1a ae c7 bd 66 33 ed bc
       -0.16234288 -0.07825799 -0.09750004 -0.028955173
000350 11 2f 79 bd 2c f1 2f 3e b2 8f d6 be dc fd 36 3e
       -0.0608359 0.17181844 -0.41906506 0.17870277
000360 f7 ca 7b 3e 50 55 0b 3d fb 8d 9e 3d d1 5d 7e be
       0.24589144 0.034016907 0.077419244 -0.24840476
000370 28 08 dd bd 20 d0 96 bd d9 af 14 bd cd a4 26 bb
       -0.10792571 -0.073639154 -0.036300514 -0.0025427819
000380 54 97 fb bd 37 ef c8 3d 35 0a 4e 3d ca 9b 1e be
       -0.12284723 0.098112516 0.050302703 -0.15489116
000390 94 7c d6 bb 2e 21 50 be be b3 9c bd 01 0b 97 be
       -0.0065456126 -0.20325157 -0.076514706 -0.29500583
0003a0 2b 37 9c 3b b5 ec 90 3e 8e a7 5d be 72 05 6c be
       0.0047673187 0.28305593 -0.21645948 -0.23048952
0003b0 8e 04 e9 bd 79 c6 10 3e cf ae 65 3d 39 4c 0c be
       -0.11377822 0.14138211 0.056074914 -0.13700952
0003c0 d1 1e 85 bd 47 0f d7 3b be ed 4e 3d ee 87 18 3d
       -0.065000184 0.0065631005 0.050519697 0.037239008
0003d0 6c 1c 1e bd c3 91 00 3e fa 92 22 bd 2b 57 6b be
       -0.038601324 0.12555604 -0.03969095 -0.2298247
0003e0 2d 22 99 3d 6e c4 bb 3d b3 f7 db bd e3 b3 01 bd
       0.07477222 0.09168325 -0.10740604 -0.031665694
0003f0 2d 50 17 3e b7 7e 94 3d 35 2a 50 3e f1 a2 83 bd
       0.14776678 0.072507314 0.203286 -0.06427563

attention_blocks.0.attention.out_proj.bias f4 [64]
000000 e9 5d 51 bd dc e6 00 3e 06 39 c3 be 3b fa 28 bd
       -0.05111495 0.12588066 -0.38129443 -0.041254263
000010 ab b1 c7 3d 7d b0 86 be a8 4e 47 be 17 0c 37 3d
       0.09750684 -0.26306525 -0.19463599 0.044689264
000020 f9 fa 07 3e 53 db 32 be 24 72 94 bd 93 6d 40 3e
       0.13279332 -0.17466478 -0.07248333 0.18791799
000030 88 66 5c bb b8 3a 72 3d f0 d6 83 3d 6e 02 37 be
       -0.003363045 0.05913803 0.064374804 -0.1787202
000040 f4 5e 22 be 89 f3 35 bd 2e 5b ea bb e7 36 88 bd
       -0.15856534 -0.044421706 -0.0071519827 -0.06651097
000050 e0 37 b2 3d ad 12 c9 bc f2 aa 22 3b 21 a2 05 bb
       0.087020636 -0.024545038 0.002482113 -0.0020390826
000060 4a 7f 9c 3d 01 2f cd bc 1c 80 15 be 8a 14 b8 bd
       0.07641466 -0.025046827 -0.14599651 -0.089882925
000070 97 bd a2 3d cc 70 e7 3d 56 98 b4 bd f7 f6 e2 bd
       0.07946318 0.11300811 -0.08818118 -0.11082261
000080 31 5a c4 bc f6 2d f1 bd a7 13 8f bd a6 54 4d bd
       -0.023968788 -0.117763445 -0.0698617 -0.050129555
000090 56 37 15 be 69 c9 fd 3d 40 13 51 3c 5f 17 41 3d
       -0.1457189 0.123919316 0.012760937 0.04714143
0000a0 93 8a 49 bc fe 48 25 3e a2 3a 7f 3d 5c 94 a6 3d
       -0.012301105 0.16141126 0.062311776 0.08133766
0000b0 a7 87 56 bd 82 0c c2 3d eb b5 de 3d f9 02 17 3e
       -0.052375462 0.09475042 0.10874542 0.14747228
0000c0 64 49 a6 3b ea 1a 2e 3e db 2e ba 3c 69 8c 51 3d
       0.005074667 0.17002454 0.02272742 0.051159296
0000d0 b0 3f c1 3d d1 2b 11 3e c2 2f 6f 3d 1c 62 38 3d
       0.094359756 0.14176871 0.058395155 0.04501544
0000e0 19 68 6a bd ef e4 33 3c 57 db fd 3c f9 37 1b bc
       -0.05722818 0.010979875 0.030988378 -0.009473794
0000f0 f4 4f 06 bd 71 49 03 3d 99 2e 22 bb 3d 03 a5 3d
       -0.032791093 0.03205246 -0.0024747013 0.08057258

attention_blocks.0.norm1.weight f4 [64]
000000 5e 48 6e 3e 49 9d 83 3e 17 16 72 3e b6 17 5e 3e
       0.23269793 0.25705937 0.23641239 0.21688733
000010 f1 a4 81 3e b0 3a 60 3e df 51 81 3e 5e 2e 40 3e
       0.25321153 0.21897388 0.25257775 0.18767688
000020 0c de 6f 3e b7 f6 90 3e 1a b8 8b 3e ae 6a 89 3e
       0.23424548 0.28313228 0.27288896 0.26839203
000030 d8 37 87 3e d8 20 c3 3e 1c d5 b9 be 12 1c a6 3e
       0.26409793 0.38110995 -0.36295402 0.3244329
000040 d8 21 d7 3e 6d 39 cd 3e 89 5b 09 3f 6f 46 04 3f
       0.42018008 0.40082875 0.53655297 0.51669973
000050 af f1 23 3f a2 aa 1e 3f 61 7b 1b 3f 4c 0e 2e 3f
       0.64040655 0.61979115 0.60735136 0.67990565
000060 30 e5 17 3f 2b ae 37 3f 37 70 1f 3f 50 ae 35 3f
       0.5933409 0.71750134 0.622806 0.70969105
000070 7c 38 1f 3f ea 6c 28 3f 3e 33 25 3f d9 33 f9 3e
       0.62195563 0.6579119 0.64531314 0.4867237
000080 0a 8d 1a 3f c3 af 28 3f 35 80 14 3f a7 c7 f4 3e
       0.6037146 0.6589319 0.5800813 0.47808573
000090 7f c4 10 3f d9 45 19 3f bf b8 12 bc 75 6b 1a 3f
       0.5654983 0.59872204 -0.00895518 0.60320216
0000a0 d8 1c ec ba be b9 32 3b a9 21 f1 3e 8f 4e a4 ba
       -0.0018013967 0.0027271356 0.47095993 -0.0012535619
0000b0 b3 66 07 3f 8f 58 fd ba 34 e3 bb 3e f6 7b 1c bc
       0.5289108 -0.0019328761 0.3669678 -0.009551039
0000c0 8c 62 22 bc 41 a0 13 3f 83 7b c8 3b 96 fc d3 3e
       -0.009911191 0.57666403 0.0061182394 0.41403645
0000d0 fc 80 f5 3e 86 ea 04 3f 79 56 2e 3f db 93 aa 3b
       0.4794997 0.51920354 0.68100697 0.005205614
0000e0 1f 01 ef 3e 14 e9 0c 3f 2e 98 28 3b a5 9b bf 3e
       0.46680543 0.5504315 0.0025725472 0.37423435
0000f0 25 c2 f9 3e af a4 3d 3b 03 1e b4 3b 7f 7d c0 ba
       0.48780933 0.002893727 0.0054967417 -0.0014685838

attention_blocks.0.norm1.bias f4 [64]
000000 68 30 19 3e bc 00 04 bc b3 fd a7 3d 7a 26 0d 3b
       0.14959872 -0.008056816 0.08202686 0.0021537826
000010 77 45 72 3d 91 f7 1e 3d 38 06 4a 3d 75 42 cc 3d
       0.059148278 0.038810316 0.049322337 0.09973613
000020 ce a2 12 3d ee d6 6d 3d 26 0b 76 3d 81 7a 56 bb
       0.035799794 0.0580663 0.060069226 -0.0032726827
000030 f0 50 07 bd 92 b5 d9 bc ee a6 21 3d 18 b1 02 be
       -0.033036172 -0.026575837 0.039465837 -0.12762868
000040 cf 26 c7 3d a3 a0 8d 3d fb 3a 20 3e a9 b6 ec bd
       0.09724199 0.06915405 0.156475 -0.11558277
000050 5b 28 be be 89 4d 68 bd d4 e8 da 3c 01 f7 64 3d
       -0.37140164 -0.05671457 0.02672235 0.055899624
000060 ee 75 54 be 97 67 db 39 a0 b0 cc bd ac a3 12 3e
       -0.20748112 0.00041848116 -0.09994626 0.14320248
000070 cf 00 7b bd ef 19 3f bc 15 63 d2 3e d8 9f 9c bd
       -0.061280068 -0.011663898 0.4109122 -0.07647675
000080 1c dc fe bd a5 3a 1c 3e db 0f aa bc 66 cc d8 3d
       -0.12444326 0.15256746 -0.020759514 0.10585861
000090 5a d6 01 be 61 81 6e 3e 95 2a ec 3b 4c b0 9a 3e
       -0.12679425 0.23291542 0.0072072246 0.3021263
0000a0 a7 0a f9 3b b9 cf d0 3b 42 0b 2f be 95 3d c8 3b
       0.007600147 0.0063724187 -0.17094138 0.006110857
0000b0 a5 97 29 3d 96 28 ca 3b c9 ae a3 3d c8 d2 2e 3b
       0.041404385 0.006169389 0.07992322 0.0026675928
0000c0 4f 49 64 3a 29 85 42 be f8 7a 38 3b 18 a8 4c 3e
       0.00087084336 -0.18996109 0.0028149467 0.19985998
0000d0 6b 63 ad 3c 4d 2a 0d be b3 9d 17 be ef 3b 02 3a
       0.02116557 -0.13785668 -0.14806251 0.0004968037
0000e0 c8 ea da 3d 1d 47 47 be da f2 3a ba c1 a2 02 bd
       0.10689312 -0.19460721 -0.00071315246 -0.031893495
0000f0 b1 1c b3 bd 42 ea c6 3a b8 69 f1 b8 dc 38 09 3a
       -0.08745707 0.0015176015 -0.00011511467 0.0005234608

attention_blocks.0.norm2.weight f4 [64]
000000 c2 ef 6f 3f 51 85 80 bb 65 02 1f bb 9b cf c8 ba
       0.93725216 -0.0039221426 -0.0024262902 -0.001532066
000010 d0 64 da 3a a5 a7 43 3b ec 6e 1a 3a 82 18 63 3f
       0.0016662125 0.0029854563 0.00058911624 0.8870927
000020 a7 14 5a 3f 6e ad 2a 3b 1e 5b 6e 3f 20 6c 3d 3f
       0.8518776 0.0026043314 0.93107784 0.7399311
000030 f5 98 37 3f 96 ec ad 39 83 0e 6e 3b e3 cf 42 3f
       0.7171777 0.00033173402 0.0036324568 0.7609846
000040 e6 04 73 3f 8f f3 29 b9 fa 1d 51 3b 50 2e 5a 3f
       0.9492935 -0.00016207829 0.0031908737 0.8522692
000050 17 41 10 bb 42 c0 a1 bb 58 c7 e3 ba 57 f9 51 3f
       -0.0022011453 -0.004936249 -0.0017378135 0.8202109
000060 4d a8 80 3f b8 11 82 3f 33 8a 2b 3f 41 91 79 3f
       1.0051361 1.0161657 0.6700775 0.97487265
000070 43 30 53 3f 82 a6 77 3f c0 25 7a 3f e8 bb 74 3f
       0.82495517 0.96738446 0.9771385 0.9559922
000080 f5 60 84 3f 68 2c 60 3f 7a fa 5a 3f 0a b2 74 3f
       1.0342089 0.8756776 0.85538447 0.95584166
000090 79 64 57 3f 67 28 59 3f e9 64 d1 39 30 a6 77 3a
       0.84137684 0.84827274 0.0003993877 0.0009447066
0000a0 59 65 d1 3a dc 4f 40 ba f1 e1 5e 3f e0 71 9c 3c
       0.0015975639 -0.0007336119 0.8706351 0.019097269
0000b0 db 22 6e 3f 86 8e d3 ba 7d 1a 74 3f cb 79 3c 3b
       0.93021935 -0.0016140498 0.9535292 0.0028759118
0000c0 ff 67 1c bb 2a 09 57 3f 89 26 ba ba 42 d2 d8 ba
       -0.0023865697 0.8399836 -0.0014202158 -0.0016542154
0000d0 25 02 81 3f ab d3 77 3f 08 32 59 3f 54 1b 20 39
       1.007878 0.96807355 0.84841967 0.0001526897
0000e0 15 f6 87 3f a1 8f 52 3f f8 02 6d bb f1 6c 56 3f
       1.0621973 0.8225041 -0.00361651 0.8375998
0000f0 61 e1 36 3c 96 70 d7 3a 47 43 8b ba 68 53 2b 3b
       0.011162133 0.0016436751 -0.0010624909 0.0026142243

attention_blocks.0.norm2.bias f4 [64]
000000 72 af b5 3a 9e f2 d8 ba 02 1f 27 bb c7 c9 34 ba
       0.0013861491 -0.0016551798 -0.002550066 -0.0006896522
000010 8b 3a 90 ba da 75 05 bb 5c ec 27 39 05 f9 02 be
       -0.0011003775 -0.0020364434 0.00016014412 -0.12790306
000020 d2 c2 3a ba 6d 35 1b bb c6 a5 94 3c be 1b b0 bd
       -0.00071243674 -0.0023682967 0.018145453 -0.085990414
000030 f4 e4 68 3d ef 0e 53 3b 19 49 04 bb 61 98 87 3e
       0.05685897 0.0032204946 -0.002018517 0.26483443
000040 cd 08 9e 3d da 80 55 bb fa 00 f0 ba 70 13 57 3e
       0.07716522 -0.0032578022 -0.0018310838 0.21003509
000050 c0 26 7d ba e8 20 36 b9 c6 26 96 bb 45 77 86 bc
       -0.0009656958 -0.00017369131 -0.004582259 -0.016414294
000060 75 2d 80 3e 17 5d 20 3c 1d 20 69 3e 20 9a 37 be
       0.2503468 0.009787819 0.22766156 -0.17929888
000070 c3 bd f3 bd 63 39 4f bc 79 95 95 be 73 17 3d 3d
       -0.119014286 -0.012647959 -0.292156 0.04616494
000080 dd e1 85 3e 5d 63 9d 3d e9 7e 0d 3d 65 92 63 3d
       0.26148883 0.07684968 0.03454486 0.055559535
000090 cf 4b 63 3e fe 9d 16 be ed 6e 56 3a 4f d2 44 ba
       0.22196887 -0.14708707 0.00081799814 -0.0007508145
0000a0 8c 8f 09 3b 19 07 fc 3a e1 d9 13 3d 08 07 3b 3b
       0.0020990102 0.001922819 0.036096457 0.0028538126
0000b0 61 31 ae 3d 5c 37 7b 3b 02 65 a8 bd fd 23 3c 39
       0.08505512 0.0038332557 -0.08222391 0.00017942484
0000c0 a8 62 4f 3b 7f 56 8e be ef 33 fd 3a 54 77 4e 3a
       0.0031644497 -0.27800366 0.0019317846 0.00078760576
0000d0 eb 5e ff bd a0 26 71 bd 97 91 94 bb 73 49 c5 3a
       -0.12469276 -0.058874726 -0.004533957 0.0015051797
0000e0 32 d1 d5 3c 27 dc 40 3c 16 9b 9e 39 65 9c ca be
       0.026100729 0.011771238 0.00030251656 -0.39572445
0000f0 48 6d 23 3b 9a 7c 27 ba 90 e9 db 3a 35 85 f0 ba
       0.0024936963 -0.00063891115 0.0016777981 -0.0018350246
