checkpoints/market-transformer.pth (torch, 793938 bytes, 50 tensors)

cls_token f4 [1, 1, 64]
00000000: 5114 003f e1fa a0bc a53d 47bd 01b3 483f
00000010: 43b9 82bd 681b a8be 4225 55bd 2fa5 44bd
00000020: dfff 38be d013 e6bd 2360 533c 4626 d9bd
00000030: 6462 883e bad0 513e 4213 0d3e 0113 75be
00000040: 0429 89bf 18c7 68bd d9e9 233e 1582 663e
00000050: d769 843f 2e63 3a3e 0522 84be 8ddb fabe
00000060: 5676 95be 0a81 5b3e 6e83 e23d 8cd4 4c3f
00000070: d4bf 92bd 0b55 e8be 81fd dbbe 1576 b1bd
00000080: 7f17 32be 8a50 043d e0c1 a73e 5ed3 1a3f
00000090: 6742 0e3b 9d09 83bf 0c5d c93d f9da 323d
000000a0: d9e2 a6be 3b97 1bbe ccdb a7bd 1ce2 a93e
000000b0: e94b 923d 7a06 44be a9d6 9e3e 92da 13bd
000000c0: 0db5 1bbd 6936 23bd a3f6 82be cad4 ec3e
000000d0: 1790 2cbd e25e b03e 983b cdbc 3dfd 24be
000000e0: 9d4c c93c 6b49 943e 243e 2e3e 3bb4 103f
000000f0: f406 973c 1e98 cd3d cf69 3fbe a86a 07bd
0.50031 -0.019650878 -0.048642773 0.7839814 -0.06382992 -0.3283341 -0.052037485 -0.048009094
-0.18066357 -0.11234248 0.012901339 -0.10603003 0.26637566 0.20489779 0.13776878 -0.2393303
-1.0715642 -0.056830496 0.16007175 0.2251056 1.03448 0.18201897 -0.25807205 -0.4899563
-0.29191846 0.21435943 0.110602245 0.8001182 -0.071654946 -0.45377383 -0.42966846 -0.086651005
-0.17391776 0.03230337 0.32765102 0.6047877 0.002170706 -1.0237309 0.098322004 0.04366586
-0.32594946 -0.15194409 -0.0819622 0.3318032 0.07143385 -0.19143096 0.31023148 -0.036097117
-0.03801446 -0.03984681 -0.25578794 0.46256095 -0.042129602 0.3444739 -0.02505283 -0.16112228
0.024572665 0.28962263 0.17015892 0.5652501 0.018435933 0.1003878 -0.18692707 -0.0330607

input_proj.weight f4 [64, 33]
00000000: a2e1 9bbd 073e 6dbd fa6f 103b 5ada 74bd
00000010: 1d88 09be 2341 163c bce5 023e 09ab 393b
00000020: a343 e53b c6c7 713d e393 f33c 21d4 d8bd
00000030: f309 77bc 761f abbb 58ca 1e3d c076 b1bd
00000040: 1461 bc3b 6318 ddbd 385c b63d 9529 7b3d
00000050: 1039 3f3d 7c68 b7bc 048e 2c3d b595 68bd
00000060: d407 0abe 6259 63bd 2b9e bdbd b7de 5c3b
00000070: 68cc 803d bcc0 593d 13c0 bdbd 134e 843d
00000080: 545e c73d b740 afbd b6d5 05be 7b35 d13d
00000090: 4a79 c43d 41f9 223e b14e 563d 8e7a 41be
000000a0: 7cd2 03be d584 19bc 9c26 6ebd 993a a2bd
000000b0: 2043 a4bc cda1 78bd c35b 4e3d 52db 0d3e
000000c0: f540 1e3d 76bf 61bd 38ef c0bc b369 683d
000000d0: 009f 0fbd cf46 16bd 3dd1 2fbe dea9 7dbd
000000e0: e16e be3d e900 9b3c b5f1 af3d 4ce0 123d
000000f0: 1745 753d 29f4 7c3d 8e1b 9abd 7132 4e3d
00000100: cb47 f438 2fe8 87bd 8489 c3bd eb40 15bd
00000110: e3d2 8cbd bacd 283d a20f 00be 4ddb ec3b
00000120: 47c3 6e3d 634e f3bc 7e3a d03d d41d 893d
00000130: 6ef0 c23d 3e9f 44bd b0e1 14bc ba77 f3bc
00000140: 0f2d 3bbd 5d8b 53bd 9a1a ba3d ee24 83bd
00000150: 11d7 84bd 4a1d b9bc aef4 7ebd 6143 023e
00000160: a9ff df3b 4c86 d13d 2398 aabc 2061 8a3d
00000170: 58ce 113d 130c 183e f5bd 523d 5d33 d1bd
00000180: 4e70 8abd 853b 703d 021b d6bd c30a 033d
00000190: 03e2 ed3b 90d5 2b3e 70fa f23d 046b 4a3e
000001a0: 82ed 8d3e 3065 e1bd 2004 983c 49cc b9bd
000001b0: 3627 f73c a406 11bd 4aa7 cb3d de48 b1bd
000001c0: a0c5 84bd 64ed 09bc 019e 0e3d efeb 0d3e
000001d0: 8181 e5bd 4386 c0bb eb6d aebd 2ca0 c33d
000001e0: f0af b2bd 5c20 283d 5996 813d db35 9cbd
000001f0: 92fd bbbc 286c 3a3e 903d 0a3d d339 2bbd
00000200: dee3 b23b ee0b d7bd c5d6 b8bc 75c4 2cbe
00000210: 169b babc 5b97 8f3d 6ce4 50be 2708 a83c
00000220: a724 edbd 267f 1bbe 58e4 503e 5bbc 993d
00000230: b572 c43c e29b 2c3d 0b6d c33d 941d b1bd
00000240: b035 9b3d 8e75 9ebd bfca 373d 7adf 55bc
00000250: 3138 7fbd 04b2 9b3c 3687 a1bd c655 9abb
00000260: 7d92 e3bd f7aa 583d 71bf 173e ac90 453d
00000270: bc07 1b3e 4851 af3d 24ff 153d 5740 d5bb
00000280: be37 703d a0ef 0abd 01ba b4bc bdbc f83d
00000290: 7979 7bbd 9299 5f3d 1a71 b83d 2426 d83d
000002a0: b103 fabc 2dd7 163d 7bef 123e f538 1a3e
000002b0: eb12 2b3d 8c9f b13d c019 5e3d 2104 fdbc
000002c0: c35d 89bb a77c 553d 4489 0fbe f24e 80bd
000002d0: dcb3 8b3d 97ff cebd 77fc d7bb b53e 93bd
000002e0: 914a b83d 8522 babd 86a1 7c3b e8c2 1dbd
000002f0: 3f99 20be 7304 6e3d e4f8 9bbd 3b89 283d
00000300: 5f5c bd3d e956 52bd 4613 b03c 7809 b53d
00000310: 9cea 883c 6ecc b7bd 1fac e6bd 9d68 d73c
00000320: 3ab7 d13d 08ae 8d3c 7b47 463b c4d0 ecbd
00000330: abe4 903d 116d cbbc 7e3f 0cbd 35e7 c1bc
00000340: 9f3a d83c 32fd 0d3e 67b5 c6bd 99c4 23bd
00000350: 6bd9 71bd 1f9c 4dbd 1c62 0abe aa75 32bc
00000360: 6c0d a9bd 1614 32be e341 8c3c 30b1 423e
00000370: 0eff 8a3d 781d 2e3e 3af2 c7bc d1ee 8d3d
00000380: 8c0f 3b3d 7b55 473d c98a eb3d 8013 1ebd
00000390: ba67 d6bd 284d a0bd e763 b6bd bcb4 9a3d
000003a0: 6f38 f33c c688 8d3d 66bc 0f3c d3ec 063e
000003b0: 9d24 593d e9cf 91bd 862d bcbe e368 c1be
000003c0: 6034 72bd a19f 1cbe de94 a9bd 3af0 15bd
000003d0: 5a42 10be 851a 70be 5da7 f7bd 01e0 f7bd
000003e0: 137c 253e 7890 b5bd 0953 863d 8f67 cc3d
000003f0: ee7e d53d fdcf 2c3c 1c72 253e a92f dcbd
-0.076113954 -0.057920482 0.00220394 -0.05977855 -0.1343083 0.009170803 0.12782949 0.0028330705
0.0069965883 0.05902841 0.029733604 -0.105873354 -0.015078056 -0.0052222563 0.03876719 -0.08665228
0.0057488773 -0.10795667 0.08904308 0.061318953 0.04668528 -0.02238869 0.042127624 -0.056783397
-0.13479549 -0.055505164 -0.09258684 0.0033702084 0.062889874 0.05316232 -0.09265151 0.06460204
0.097347885 -0.08557265 -0.13069806 0.10215279 0.095934466 0.15915395 0.05232114 -0.18894407
-0.12873262 -0.0093700485 -0.05814229 -0.07921333 -0.020051539 -0.06070118 0.05038048 0.13853195
0.038636167 -0.055114232 -0.023551568 0.056741428 -0.035063744 -0.036688622 -0.17169662 -0.061929576
0.09298492 0.018921332 0.08591024 0.035858437 0.059880342 0.061756287 -0.07524787 0.050341073
0.00011648199 -0.066360824 -0.095477134 -0.036438864 -0.06876161 0.04121182 -0.12505963 0.007228291
0.0582917 -0.029700464 0.101674065 0.066951424 0.095185146 -0.048003428 -0.009087011 -0.029720176
-0.045697268 -0.05164658 0.09087105 -0.06403528 -0.06486333 -0.022596974 -0.062245063 0.12721016
0.006835897 0.10230693 -0.020824498 0.067568064 0.035597175 0.14848356 0.05145069 -0.10214875
-0.06759702 0.058650512 -0.1045437 0.031992685 0.0072596087 0.16780686 0.118641734 0.19767386
0.27720267 -0.11005628 0.018556654 -0.090721674 0.030170064 -0.035406724 0.09944017 -0.086564764
-0.064830065 -0.008418415 0.034818653 0.13859533 -0.112063415 -0.0058753802 -0.08517059 0.09552035
-0.08724964 0.041046485 0.06327505 -0.076274596 -0.02294806 0.18205321 0.033750117 -0.041803192
0.005459293 -0.10500322 -0.022563348 -0.16871817 -0.022779029 0.07011291 -0.20399636 0.0205117
-0.115792565 -0.15185222 0.20399606 0.07506629 0.023980478 0.04214085 0.09542283 -0.0864822
0.075785995 -0.077372655 0.044871088 -0.013053769 -0.062309448 0.019005783 -0.078871176 -0.004709932
-0.11111925 0.05289742 0.14819123 0.048233673 0.15139669 0.08560425 0.036620274 -0.006507914
0.05864691 -0.03391993 -0.02206135 0.12145374 -0.061395142 0.054589815 0.090059474 0.1055415
-0.030519338 0.0368263 0.14349167 0.1506079 0.04176609 0.08673009 0.054223776 -0.030885758
-0.0041920855 0.05212083 -0.14017206 -0.062650576 0.06821415 -0.10107344 -0.0065913755 -0.07189695
0.089985974 -0.09088615 0.0038548424 -0.038515955 -0.15683459 0.05810971 -0.076158315 0.0411465
0.09246134 -0.051352415 0.021493565 0.08839697 0.016713433 -0.08974539 -0.11263298 0.026295
0.10240026 0.017294899 0.0030255008 -0.115632564 0.07074865 -0.02483228 -0.03424024 -0.023669818
0.02639514 0.13866118 -0.097025685 -0.039982412 -0.059045237 -0.050197717 -0.13513988 -0.010892311
-0.08254513 -0.17390475 0.017121261 0.19012904 0.06786929 0.17003429 -0.024407495 0.06930316
0.045669124 0.048665505 0.115010805 -0.038592815 -0.10469003 -0.078272164 -0.089057736 0.075540036
0.029689996 0.06910853 0.008772945 0.13176279 0.053013433 -0.07119734 -0.36753482 -0.37775335
-0.05913198 -0.15295269 -0.08280347 -0.03660605 -0.14087811 -0.23447616 -0.12092469 -0.12103272
0.16160612 -0.08865446 0.065588064 0.0998069 0.104246005 0.010547635 0.1615681 -0.10751278

input_proj.bias f4 [64]
00000000: b9e7 543c 3656 423e d34d dcbd 980a 333d
00000010: 87db f93b 3830 cdbc af02 1e3d a422 e43c
00000020: 0591 2ebd 89eb 353d 85e2 85bb 9ed6 293d
00000030: 2369 0a3e 29e5 6abe 36fd 3abc 4b6c 41bd
00000040: 3299 8b3d e99e 83bc 1023 30bd f54a 753c
00000050: a291 093e 879a e63d ee46 96bd 0ad2 b23d
00000060: 90a2 523c d3b1 613d 0be7 993d 4e74 11bd
00000070: dceb a0bd 5136 df3d 2626 843c 3c71 9ebd
00000080: 6161 80bb 2cfe bc3d 741c a0bc 3a51 203e
00000090: 312f 0dbc d549 afbc 1b61 4ebd 2177 15be
000000a0: dcd9 2ebe f013 b6bd 0893 b6bd a896 60be
000000b0: a882 31be ec1a 84bd 9772 1bbe 4ed1 d7bd
000000c0: 8f74 bbbc 95df 04be b7ea 9f3d 36c1 80bc
000000d0: b994 e0bd 56c3 80be e003 8b3d bd9a e1bd
000000e0: 961b 283e 2fa9 1dbd 0e5e d63c 10ae bfbc
000000f0: 05e3 0a3e eb66 29be 1db9 ef3c 0e54 3abe
0.0129947 0.189782 -0.10757031 0.043711275 0.0076250467 -0.025047407 0.038576778 0.02784855
-0.04261877 0.044414077 -0.004085841 0.04146444 0.13516669 -0.2293898 -0.011412909 -0.047222417
0.06816329 -0.016066985 -0.04300219 0.014971484 0.13434461 0.112599425 -0.073377475 0.08731468
0.012856141 0.055101227 0.07514771 -0.035511307 -0.078574866 0.10899032 0.016131472 -0.077364415
-0.0039178585 0.09228167 -0.019544818 0.15655985 -0.008617208 -0.02139751 -0.050385576 -0.14596225
-0.17075294 -0.088905215 -0.08914763 -0.21932471 -0.17334998 -0.064504474 -0.15180431 -0.105379686
-0.022882728 -0.12975915 0.0780844 -0.01571713 -0.109658666 -0.2514903 0.067878485 -0.11015842
0.16416773 -0.038491424 0.026167896 -0.02339843 0.13563164 -0.16543166 0.029263074 -0.18196127

pos_encoder.pe f4 [1, 513, 64]
00000000: 0000 0000 0000 803f 0000 0000 0000 803f
00000010: 0000 0000 0000 803f 0000 0000 0000 803f
00000020: 0000 0000 0000 803f 0000 0000 0000 803f
00000030: 0000 0000 0000 803f 0000 0000 0000 803f
00000040: 0000 0000 0000 803f 0000 0000 0000 803f
00000050: 0000 0000 0000 803f 0000 0000 0000 803f
00000060: 0000 0000 0000 803f 0000 0000 0000 803f
00000070: 0000 0000 0000 803f 0000 0000 0000 803f
00000080: 0000 0000 0000 803f 0000 0000 0000 803f
00000090: 0000 0000 0000 803f 0000 0000 0000 803f
000000a0: 0000 0000 0000 803f 0000 0000 0000 803f
000000b0: 0000 0000 0000 803f 0000 0000 0000 803f
000000c0: 0000 0000 0000 803f 0000 0000 0000 803f
000000d0: 0000 0000 0000 803f 0000 0000 0000 803f
000000e0: 0000 0000 0000 803f 0000 0000 0000 803f
000000f0: 0000 0000 0000 803f 0000 0000 0000 803f
00000100: a46a 573f 4151 0a3f ce7a 2e3f b054 3b3f
00000110: ba7d 083f 0d94 583f f190 d13e c692 693f
00000120: 3e39 9f3e 6b4e 733f 258f 703e f1d5 783f
00000130: 3a23 353e 83f6 7b3f f325 083e 28ba 7d3f
00000140: 7675 cc3d 98b8 7e3f 366f 993d d147 7f3f
00000150: ae36 663d 6898 7f3f faac 2c3d bdc5 7f3f
00000160: 5b81 013d 3cdf 7f3f a53e c23c 93ed 7f3f
00000170: 42ab 913c a3f5 7f3f 497a 5a3c 2cfa 7f3f
00000180: 57d6 233c b9fc 7f3f 16b9 f53b 28fe 7f3f
00000190: 5a44 b83b f7fe 7f3f 5a2e 8a3b 6bff 7f3f
000001a0: 1c3e 4f3b acff 7f3f 0369 1b3b d1ff 7f3f
000001b0: 2015 e93a e6ff 7f3f 8bc9 ae3a f1ff 7f3f
000001c0: 6d12 833a f8ff 7f3f 8994 443a fbff 7f3f
000001d0: 136a 133a fdff 7f3f 2117 dd39 ffff 7f3f
000001e0: 61cb a539 ffff 7f3f 0da8 7839 0000 803f
000001f0: 5377 3a39 0000 803f 6dd4 0b39 0000 803f
00000200: b7c7 683f 3311 d5be d95a 7f3f 534d 913d
00000210: 0af2 663f b2e8 dc3e 1235 3f3f 0239 2a3f
00000220: 1b54 173f ec7b 4e3f b5d3 e93e 69be 633f
00000230: f647 b23e a6fa 6f3f 82f0 863e f5f2 763f
00000240: f86f 4b3e a5e5 7a3f d300 193e 4f20 7d3f
00000250: 86d9 e53d f361 7e3f ae85 ac3d 0e17 7f3f
00000260: c870 813d f97c 7f3f aa30 423d 4eb6 7f3f
00000270: 5ca5 113d 8ed6 7f3f 5075 da3c b1e8 7f3f
00000280: 3ed4 a33c e5f2 7f3f 51b7 753c a1f8 7f3f
00000290: 9b43 383c dbfb 7f3f 0a2e 0a3c abfd 7f3f
000002a0: d83d cf3b b1fe 7f3f e768 9b3b 43ff 7f3f
000002b0: 0815 693b 96ff 7f3f 80c9 2e3b c4ff 7f3f
000002c0: 6812 033b dfff 7f3f 8594 c43a edff 7f3f
000002d0: 126a 933a f5ff 7f3f 1f17 5d3a faff 7f3f
000002e0: 60cb 253a fdff 7f3f 0ca8 f839 feff 7f3f
000002f0: 5377 ba39 ffff 7f3f 6dd4 8b39 0000 803f
00000300: c381 103e 2670 7dbf de3c 473f cebf 20bf
00000310: d745 7e3f ab7f edbd 6321 743f 6318 9a3e
00000320: c209 503f 582f 153f b724 273f a2e7 413f
00000330: 6c2f 023f 296d 5c3f a768 c73e 37c9 6b3f
00000340: 6c4e 973e ef90 743f e26d 643e 928c 793f
00000350: d7ee 2b3e 9e5d 7c3f 2c33 013e 43f4 7d3f
00000360: c0ff c13d 4fd9 7e3f 0693 913d 3a5a 7f3f
00000370: 4e69 5a3d c3a2 7f3f c5d1 233d 90cb 7f3f
00000380: 1fb9 f53c 83e2 7f3f 4747 b83c 6bef 7f3f
00000390: c631 8a3c adf6 7f3f 4644 4f3c c1fa 7f3f
000003a0: 0d6e 1b3c 0dfd 7f3f 131d e93b 58fe 7f3f
000003b0: a8cf ae3b 11ff 7f3f 1317 833b 7aff 7f3f
000003c0: 929b 443b b5ff 7f3f 606f 133b d6ff 7f3f
000003d0: 171f dd3a e8ff 7f3f 56d1 a53a f3ff 7f3f
000003e0: 10b1 783a f9ff 7f3f 097e 3a3a fcff 7f3f
000003f0: 7ed9 0b3a feff 7f3f a4be d139 ffff 7f3f
0.0 1.0 0.0 1.0 0.0 1.0 0.0 1.0
0.0 1.0 0.0 1.0 0.0 1.0 0.0 1.0
0.0 1.0 0.0 1.0 0.0 1.0 0.0 1.0
0.0 1.0 0.0 1.0 0.0 1.0 0.0 1.0
0.0 1.0 0.0 1.0 0.0 1.0 0.0 1.0
0.0 1.0 0.0 1.0 0.0 1.0 0.0 1.0
0.0 1.0 0.0 1.0 0.0 1.0 0.0 1.0
0.0 1.0 0.0 1.0 0.0 1.0 0.0 1.0
0.84147096 0.54030234 0.68156135 0.731761 0.53316844 0.8460091 0.40930894 0.91239583
0.3109836 0.9504153 0.23492105 0.9720145 0.17689219 0.9842302 0.13295726 0.99112177
0.099833414 0.9950042 0.07491915 0.9971896 0.05620449 0.9984193 0.04215715 0.999111
0.031617504 0.99950004 0.023711512 0.99971884 0.017781857 0.99984187 0.013334819 0.99991107
0.009999833 0.99995 0.0074988706 0.99997187 0.0056233825 0.9999842 0.0042169513 0.9999911
0.0031622713 0.999995 0.0023713715 0.9999972 0.0017782785 0.99999845 0.0013335211 0.9999991
0.0009999998 0.9999995 0.000749894 0.9999997 0.0005623411 0.9999998 0.00042169637 0.99999994
0.00031622782 0.99999994 0.00023713727 1.0 0.00017782794 1.0 0.00013335208 1.0
0.9092974 -0.41614684 0.99748 0.070948265 0.9021307 0.43146282 0.74690354 0.66493237
0.5911271 0.8065784 0.45669332 0.8896242 0.34820527 0.93741834 0.26355368 0.96464473
0.19866931 0.9800666 0.1494172 0.98877424 0.1122313 0.9936821 0.08423935 0.99644554
0.063203394 0.9980007 0.04740969 0.9988755 0.03555809 0.9993676 0.026667267 0.99964434
0.019998666 0.9998 0.014997319 0.9998875 0.011246587 0.99993676 0.008433828 0.9999644
0.006324511 0.99998003 0.00474273 0.99998873 0.0035565514 0.9999937 0.0026670396 0.9999964
0.0019999985 0.99999803 0.0014997876 0.99999887 0.0011246821 0.99999934 0.0008433926 0.99999964
0.0006324556 0.9999998 0.0004742745 0.9999999 0.00035565588 0.99999994 0.00026670416 1.0
0.14112 -0.9899925 0.7782725 -0.6279267 0.9932532 -0.11596616 0.95363444 0.3009673
0.8126489 0.58275366 0.652904 0.7574407 0.5085361 0.86104065 0.3894703 0.92103904
0.2955202 0.9553365 0.22307542 0.9748012 0.16790329 0.9858035 0.12617177 0.9920084
0.094726086 0.99550337 0.071081206 0.9974705 0.053323083 0.9985773 0.039994974 0.99919987
0.0299955 0.99955004 0.022494925 0.999747 0.016869437 0.9998577 0.012650555 0.99991995
0.009486687 0.999955 0.0071140616 0.9999747 0.005334813 0.99998575 0.0040005534 0.999992
0.0029999954 0.9999955 0.0022496805 0.9999975 0.0016870227 0.99999857 0.0012650888 0.9999992
0.00094868336 0.9999996 0.00071141176 0.99999976 0.0005334838 0.9999999 0.00040005625 0.99999994

attention_blocks.0.attention.in_proj_weight f4 [192, 64]
00000000: 9195 0cbc 0486 0a3c 5234 603c 8293 653d
00000010: befc 52bc 8273 3d3b 568d 913d 3a50 28bd
00000020: eb5c adbc 57a3 b9bc ad38 1c3d 8560 b43d
00000030: 74b0 2cbc ad78 0dbe 79fb 4cbd 93d2 833c
00000040: 38f4 72bd fbf4 113d e8cf 173d 9421 803c
00000050: 45ad c3b9 bb36 8e3c 34a1 853d aa86 59bc
00000060: 59fc 0fbc 122d 0ebc a6a9 b8bd 9d9d 193c
00000070: 72e2 293d 12bd f0bd cf0f be3b 83b3 743d
00000080: ea4c 57bd 952c 903c 129c 71bd ef4a 2c3d
00000090: de3b 663d 8abb edbb 7701 813c 013c 39bc
000000a0: 844c 65bd 8285 afbd 6e67 8c3c fa99 2bbd
000000b0: 0026 a33d 4a33 91bd 81b9 283c c70b 1ebd
000000c0: 2a77 ed3c f858 833d 1b43 fe3c d939 1ebc
000000d0: 9e5e 08bd 45d3 a0bd abc8 473d ab1a 80bd
000000e0: 13e0 1f3c ecce 85bd 8d1f 2b3d a107 c03c
000000f0: f3b1 133d fdc3 593d a60f 86bc 3934 57bd
00000100: f783 253c 4ddf 2bbd 2884 903c f315 afbd
00000110: bba7 253d 74cf 973d 2df8 463c 3c25 dcbd
00000120: 0c0c 0d3e 9f16 ca3d 3b6e b5bd 06b5 23bd
00000130: fc42 a03d 7ce9 023e c767 1f3d 4c38 4abd
00000140: 2b4e a03d f19e bbbd eaff 2abd 2ee6 74be
00000150: 1bdc e6bc 2d01 1bbd 639f e3bd bbb5 5abd
00000160: 30e6 9d3d 4506 e43d d2fc 453e 116a ffbd
00000170: d14c 53bd 12f8 443e cb47 5abc 5b68 d3bd
00000180: ec7d 80bd 7b06 55be f5cf 243e d336 163d
00000190: 9e05 9f3d 13d6 08bc d815 2b3e b1a1 1dbc
000001a0: 47ae 35bd 6dd4 903d e375 3e3d f04a a93d
000001b0: 439e 0b3a 8482 143e 0f3c 533d 0867 35bd
000001c0: f9ef a1bd 4541 1d3e 5176 0abe 0585 203d
000001d0: 0b02 0f3d 0dc7 9d3d e35d 9fbd 94f2 98bc
000001e0: 6769 4fbd 903b 0a3d 5d78 30be 9bf4 0abd
000001f0: 82a2 fabd f2f8 c03c 4164 d23c 3d8b 173e
00000200: fe0e 13bd 09b3 50bd 46ef 02bd 8728 0dbe
00000210: a8e2 34bd 3608 2c3d 9b86 81bd 7aba 96bc
00000220: d594 2a3d 8511 01bd a489 aabd 7f34 e9bd
00000230: e365 033e 8101 923d 5c70 55bd c53c 21bd
00000240: 09c8 033e 6d69 80bd 4952 1abe b3dc b8bd
00000250: 6af7 dc3d cda4 7dbd 2c80 8ebd c43d 7abd
00000260: ad38 dcbc 6e9c 48bd cdd0 9a3d 949b 683c
00000270: 8b12 15be 765b d23d 7576 eebd 569b d4bd
00000280: 3cf9 193c bf4b ebbb 95ed 123e 062a 1cbc
00000290: d8b0 943d cbcc ed3c 4c51 e93d 91b3 7cbd
000002a0: e32f 893d 4aa9 943c 4653 e7bc f4c4 0d3e
000002b0: 01a5 1ebe 6d68 45bd c11b 52bd f844 06bd
000002c0: aeac 0abd a3d4 e23a 4b5f 14bc aedc b73d
000002d0: afb0 173b 7438 e63d 7d48 98bd 4220 423d
000002e0: c04e fdbc 53c7 643d 9756 d7bd 15b0 183e
000002f0: e2d0 e9bd 62ee 6bbc b737 453e b162 a73c
00000300: cb01 1dbd 5805 453b f65b 80bd ac48 923d
00000310: 4e7f 08bd d4cb 3dbd b88c 323d e3e8 003c
00000320: 8d7c 713c cc0f a9bd 24e4 c33b 46a3 683c
00000330: 8cf6 8b3d 0a83 b43d e7f4 37bd 8dfc 96bd
00000340: 84a9 083d 5ba7 ad3d 4c0f 47bd ca8c 373e
00000350: ceea 90b9 5198 76bd 6038 003c 47a6 a1bc
00000360: a51c 0d3c 00f4 09bd b378 abbd 7006 223d
00000370: 7204 003d 1bf0 1fbe d6e6 0b3d 93f4 ca3d
00000380: 98a2 e1bc 8702 f83d 6613 c53b 03e4 febd
00000390: 7dee c6bd d093 90bd 24ee 9abc 39c1 b63b
000003a0: e3b5 6f3d 29a9 62bd af45 bc3d 324e 6b3c
000003b0: 9e72 21bd ec03 64bd d337 093d 59ee 923c
000003c0: a560 663d a946 0c3d 16f4 7e3d bf34 2f3d
000003d0: c6c2 303b 4541 2abd ac75 1f3d f256 c33b
000003e0: 38be 5d3d 2b8e 11bd 88d3 c43c 2e59 85bc
000003f0: 9053 0d3d 72fc 27bd fd77 c13b 98ba c83c
-0.008580581 0.008454803 0.013684349 0.056048878 -0.012877641 0.002890796 0.07107036 -0.041092135
-0.02116247 -0.022660894 0.038139988 0.08807472 -0.010540117 -0.13815565 -0.05004451 0.01609162
-0.059314936 0.035634022 0.03706351 0.015641011 -0.00037322394 0.017360082 0.06524888 -0.013276735
-0.008788192 -0.008677738 -0.09016733 0.009375957 0.04147572 -0.11754812 0.0058002244 0.05974151
-0.052563585 0.017599383 -0.05898673 0.04206365 0.056209438 -0.0072550224 0.015747769 -0.01130581
-0.055981174 -0.085703865 0.017139163 -0.04189489 0.07966232 -0.07089861 0.010298134 -0.03858545
0.028987486 0.06413454 0.031037858 -0.009657347 -0.03329336 -0.078527965 0.048775356 -0.062550865
0.009758013 -0.06533608 0.041778136 0.023441138 0.036058377 0.053165425 -0.016364884 -0.052540038
0.010102264 -0.041961003 0.017641142 -0.08549108 0.040443163 0.074126154 0.012144131 -0.107492894
0.13774127 0.09867596 -0.088589154 -0.03996756 0.07825276 0.1278438 0.03891733 -0.049370095
0.07827409 -0.09161175 -0.041747965 -0.23915932 -0.028181126 -0.03784292 -0.11114385 -0.053395968
0.077099204 0.11134008 0.19334725 -0.124714024 -0.05158693 0.19235256 -0.013322781 -0.103226386
-0.06274018 -0.20803253 0.16094954 0.03667338 0.07764743 -0.0083518205 0.16707551 -0.00962107
-0.044355657 0.07071767 0.046499144 0.08266246 0.0005326012 0.14502913 0.05157095 -0.04428771
-0.07907099 0.1535693 -0.13521697 0.039189357 0.034914058 0.077039815 -0.07781579 -0.018670358
-0.05063763 0.03374821 -0.17233415 -0.03392468 -0.12238027 0.023556206 0.02568257 0.14799209
-0.03590297 -0.05095199 -0.03196647 -0.13784991 -0.04416147 0.042000018 -0.06324502 -0.018399466
0.041645844 -0.03151085 -0.08327034 -0.11386966 0.12831835 0.07129193 -0.052109107 -0.039364595
0.12869276 -0.06270108 -0.15070452 -0.0902647 0.10789378 -0.061924744 -0.069580406 -0.06109406
-0.026882494 -0.048977308 0.07559357 0.014197249 -0.14557855 0.10271351 -0.11643688 -0.103811905
0.009397801 -0.0071806605 0.14348443 -0.009531504 0.07260293 0.029028317 0.11392459 -0.061694685
0.06698587 0.01814713 -0.02823795 0.13844663 -0.15492631 -0.04819529 -0.051296 -0.032780617
-0.033856086 0.0017305802 -0.009055923 0.08977638 0.0023146083 0.11241236 -0.07435701 0.047394045
-0.03092134 0.055854153 -0.105145626 0.1491092 -0.11416794 -0.014400097 0.19259535 0.020432802
-0.038331788 0.0030063 -0.0626754 0.07142767 -0.033324532 -0.046336964 0.04359123 0.0078680245
0.014739168 -0.08254966 0.005978124 0.014199084 0.068341345 0.08814056 -0.04491129 -0.07372389
0.033364788 0.08479186 -0.048598573 0.179248 -0.00027640763 -0.060203854 0.007825941 -0.019732608
0.008612786 -0.033679962 -0.08372631 0.03955692 0.03125424 -0.15618937 0.03415569 0.0990993
-0.027543351 0.12109857 0.0060142754 -0.124458335 -0.09713457 -0.07059443 -0.018912382 0.005577233
0.05852307 -0.055337105 0.091929786 0.014361905 -0.039415948 -0.055667803 0.033500504 0.017935919
0.05624451 0.034247074 0.062244497 0.042774912 0.0026971563 -0.041566152 0.03893058 0.0059612924
0.054136485 -0.035535973 0.024026647 -0.016277876 0.03450352 -0.041012235 0.0059041963 0.024503037

attention_blocks.0.attention.in_proj_bias f4 [192]
00000000: d164 f0ba 40da 853c 40bc 063d da30 393c
00000010: 517e fd3c 1483 b3bb 4d14 62bb 97dd 4dbb
00000020: a931 873b 2cd0 323c 2e78 f63b 0a86 043c
00000030: 64fd d2bc 179f ba3b 9dfd d33c 91c2 a3bc
00000040: 62a3 263d 308d 62bd 7f71 093e 0b6f 3abc
00000050: f314 e23d 627f a1bc a69c cb3c 4920 f53b
00000060: 1bdd 77bd 45c8 233e 9d1a 1a3c 929a da3c
00000070: 6f48 46bd a480 a3bc 7306 063d 10f4 d93d
00000080: dcc8 0200 8bb1 0880 05de c8a8 6474 7005
00000090: 3264 602b c08b ef04 d9ec a205 3e54 0380
000000a0: 20c8 0100 76d4 5d2d 8e52 0380 d785 98af
000000b0: b97d e788 299d 0180 0ebe 021a 539a fc88
000000c0: 55d9 adbb b510 a4bc cdbf cdbc 3a8e 9a39
000000d0: e087 c83d bd40 26bc 7877 5b3c 5b7f 0fbe
000000e0: e7f5 0fbd 6aac 03bc e63d babb e32d 203d
000000f0: 8b80 e63d 45ac 543c 8459 503d d8a2 cd3d
00000100: f436 da34 4d28 cdb5 e0a3 f735 7348 7b36
00000110: 7734 7136 9e13 e834 8b0a 6836 e996 54b4
00000120: f415 a935 1ae0 7b35 925d 8636 3d9f 9b35
00000130: be2c 1d36 6f35 c535 8194 bd36 5671 93b5
00000140: 70dc 83b5 9abf b636 8694 5536 ff7a df34
00000150: 77ec 9037 ed79 3db5 e14e 35b6 4557 62b6
00000160: 9106 91b6 eec8 f5b4 8cef b434 cf08 7435
00000170: 0c74 0eb5 2a4c 9936 2a95 1335 6c3b 1e36
00000180: 2565 0380 077b 8880 7765 6d9d 95a4 1582
00000190: 8851 4221 55b1 1c83 ed81 2803 5457 0300
000001a0: 5515 0300 bfcb 0b22 9cb0 0280 612a 23a5
000001b0: 52b2 f402 14cf 0280 4fef 720f e926 6202
000001c0: c049 1fb5 4039 5036 c12d 84b6 ede4 57b5
000001d0: 3ebe 22b7 b677 6735 88b6 27b5 bcff 6737
000001e0: e684 e735 0be4 0336 98bd ffb5 0f84 6336
000001f0: 1bfa 31b7 d6df 9235 24c4 b735 473e 9637
00000200: 1c90 853c b323 1c3b 5a1c 94bc 8194 06ba
00000210: 4b84 c33b cd76 413c f501 21bc 7880 0d3c
00000220: b426 7c3d e64a 923b b997 85bd 5cde 513c
00000230: 337a 83bc 05a2 cf3c 5856 1bbb 04db f13a
00000240: e038 47bd f2fc ed3c 4b7b 16bd 1216 563b
00000250: d4ad d63c b5f3 103d 0c3c 9cbc aa20 4abb
00000260: f0b9 9dbb 5c78 373d 21a7 a9bc 7058 88bc
00000270: 995a 2bba 55ad 123d e263 c1ba 0bc2 95bc
00000280: aa66 963a 023e 33ba b9d8 35ba 3f8c edb9
00000290: 73ba 253b fa0b b73a e67d 6dbb 7d10 56bb
000002a0: 3ca8 aebb 6dcc a3b8 d2d4 9eba 689d 7fbb
000002b0: 8f08 843b 64d8 dbba 9f23 54bb 898c c33b
000002c0: 3be1 813c 357b 21bd 8840 3f3d c4a9 bebc
000002d0: 0e29 5e3c bb38 b03c 23f4 6dbc 0330 193d
000002e0: cb22 89bc 7d6c 033d bede 363c 95eb 823b
000002f0: 37d4 003c 584d eebc da1d eebb 52db 9bbc
-0.0018340593 0.016339421 0.032894373 0.011303151 0.030944021 -0.005478272 -0.0034496963 -0.0031412595
0.004125793 0.01091389 0.0075216508 0.008088598 -0.025755592 0.0056952345 0.025877768 -0.019990237
0.040683158 -0.05531043 0.13422202 -0.011379014 0.11039152 -0.019714061 0.02485497 0.0074806553
-0.060513597 0.15994366 0.009405759 0.026685033 -0.04840892 -0.019958802 0.032720994 0.10642254
2.55726e-40 -7.98374e-40 -2.2300746e-14 1.1306123e-35 7.9719835e-13 5.631697e-36 1.5321411e-35 -3.05727e-40
1.63627e-40 1.2609571e-11 -3.05122e-40 -2.7743738e-10 -1.3932364e-33 -1.48214e-40 2.7036895e-23 -1.520298e-33
-0.005305449 -0.020027498 -0.025115872 0.00029479136 0.09791541 -0.010147271 0.013395183 -0.14013426
-0.03514662 -0.008036712 -0.0056836484 0.03910626 0.112549864 0.012980525 0.05086662 0.100408256
4.0645648e-07 -1.5285419e-06 1.8450628e-06 3.7444086e-06 3.5942337e-06 4.322764e-07 3.457683e-06 -1.979894e-07
1.259787e-06 9.38309e-07 4.004404e-06 1.1594744e-06 2.3420866e-06 1.4693195e-06 5.649927e-06 -1.0985339e-06
-9.824416e-07 5.446328e-06 3.1825925e-06 4.1626478e-07 1.727625e-05 -7.058541e-07 -2.7017015e-06 -3.3727422e-06
-4.322101e-06 -4.5781002e-07 3.3701906e-07 9.09099e-07 -5.306799e-07 4.568622e-06 5.497883e-07 2.3578423e-06
-3.1179e-40 -1.2533761e-38 -3.1419145e-21 -1.0994024e-37 6.583766e-19 -4.6047847e-37 4.951991e-37 3.06834e-40
2.83159e-40 1.8945875e-18 -2.47026e-40 -1.4152355e-16 3.5954929e-37 -2.57957e-40 1.197761e-29 1.6615024e-37
-5.9339436e-07 3.102774e-06 -3.939233e-06 -8.042687e-07 -9.700247e-06 8.622841e-07 -6.2477966e-07 1.3828216e-05
1.724952e-06 1.965326e-06 -1.905416e-06 3.3902504e-06 -1.0608254e-05 1.0942993e-06 1.3691647e-06 1.7910394e-05
0.016304068 0.002382499 -0.018079925 -0.0005133823 0.0059666983 0.0118081095 -0.009827127 0.008636586
0.061560348 0.004464495 -0.065230794 0.012809362 -0.01604948 0.025345812 -0.0023702588 0.0018452113
-0.048638225 0.029051278 -0.036738675 0.0032666964 0.026205935 0.035388667 -0.019071601 -0.0030842223
-0.0048134252 0.044792518 -0.020709576 -0.016643733 -0.00065366324 0.035809834 -0.0014754499 -0.018281003
0.0011474688 -0.0006837548 -0.0006936896 -0.00045308654 0.0025288134 0.0013965361 -0.0036238371 -0.0032663636
-0.0053301137 -7.810523e-05 -0.0012117869 -0.0039003734 0.0040293406 -0.0016772863 -0.0032369865 0.005967681
0.015854469 -0.03942414 0.0466924 -0.02327431 0.013559593 0.021511426 -0.014523539 0.037399303
-0.016740223 0.032085884 0.011161504 0.0039953687 0.007863096 -0.029089615 -0.007266742 -0.019025479

attention_blocks.0.attention.out_proj.weight f4 [64, 64]
00000000: 7b3c 1fbc ef27 9c3b ac7f 193c 353b 3ebc
00000010: 02eb 67b9 2fed c8bb b1cf 6e3a 828a 9dba
00000020: 1fa4 99bc eabe 0c3c b410 bf3c 17a7 1dbd
00000030: 5a51 8a3b a1c5 233b fc83 18bc 6bd1 103d
00000040: 56e6 113d fe5a 2cbd 4891 ad3c 7e5b 393a
00000050: 96e5 1abb a976 37bb e4c8 cb3c 6120 083c
00000060: 889a 9a3c c676 acbc 5550 79bc 78cd 6dbb
00000070: 2c8c 8bbb 8ca2 d4bc 9314 76bb d7a6 10ba
00000080: 4959 d639 222b d9b9 7e9a ddba c216 89ba
00000090: 6f5a 9fba 3c34 82b8 2ee9 803b d3f6 23ba
000000a0: d951 753b 1bb3 9e3b 0607 523a bf6a d03b
000000b0: a8cd 5fbb 8a92 5b3b a364 2c3b f5e7 bcb9
000000c0: d5ae 69bb d4e0 94bb 1aec 453c 13c5 88bc
000000d0: 4480 42ba 9d8a afbb be79 643b d85d 22bc
000000e0: 8b98 e839 09de 08bb 20a6 6f3c fad8 3abc
000000f0: 0f92 273b 1b48 a8bc 9491 8fbc fe48 293b
00000100: ba92 1b3d 08c9 afbd 6d97 de3c 3fd1 87bd
00000110: 63a5 31bd a898 28bd b5bf f33b 5979 febc
00000120: 32a9 a63d 09cc 83bc 2cca babd da6e 483d
00000130: fef1 bb3c 894f 1abd 3f6a 423d 92ab 0bbe
00000140: 6784 4f3d c829 393c ee08 d2bc add9 313c
00000150: 73a1 9aba 34a9 143c 9486 d93c 7e22 1fbb
00000160: 7350 f4bc 2cf8 dabd ee97 bd3a 8ee8 5f3d
00000170: f924 80bd 3d3f 37bd 39b9 4d3c 2429 063d
00000180: d390 da3b 8fee b1ba a934 803c f638 793c
00000190: b262 35bc 739b 51bc 9118 993b f7ae 48ba
000001a0: 455e 08bc 11fb 59bc ce5b 5bb9 8f8f 3cbc
000001b0: 8a0b 5cbb 4099 043c 6332 7f3b f85d f93b
000001c0: d833 913c a07b dabc 7bf3 41bc 0813 28bd
000001d0: ac9b aebc 4851 2abc 3b9f af3c b787 bdbc
000001e0: 3dbc f0bc eeca 27bd b434 0d3c 968c 5c3d
000001f0: d1a7 47bc 626f c2bd 12bc adbc 5ce4 81bc
00000200: 525d 863b 280b 163d 1303 3fbc 0f62 95bc
00000210: be58 c3b9 a237 b5bc 592c 503b ca77 213c
00000220: cab1 293d 7725 b3bc 28f8 b4bd 6f48 f7bb
00000230: 4106 cdbc 92e1 a1b9 00ff 523d 98a6 56bd
00000240: 910d c9bd 1702 af3d c26f 65bd 45da 743c
00000250: 3027 043c d6fa a73b 7195 43bd 69d0 edbc
00000260: 4f4d 1ebd 1183 6e3d 8103 143d 4408 fc3b
00000270: 8bc4 5c3c 6606 363d a6aa 8c3c dd08 ea3b
00000280: 6019 39b9 d1c2 543c c8e1 193b 753d 2b3b
00000290: 61e2 41ba 23b7 23ba b5b0 ff3b e224 53bc
000002a0: 61db 293a d998 463c e118 a73b 8e9c ad3b
000002b0: 22f4 44bb 83e7 d5ba 1b51 2639 7b63 983b
000002c0: 2e08 aabc aa6f f5bc 10db 86bc 9dbf 733a
000002d0: 08bc 893b e3c5 41bc c662 08bc 36e9 a83c
000002e0: 1c0e 613d ee21 9abc f148 78bb 0344 2d3d
000002f0: 1431 afbc 8428 7b3c 5791 f93c 7569 0e3c
00000300: d0bf 883d 718c 9e3c 6094 3b3a 5e5d 4f3c
00000310: 6295 13bd f148 3f3c 095b 67bc 4bca 153c
00000320: 2aeb c6bd a5c7 083c 0118 fabb 22e2 26bd
00000330: 8c94 d9bb 9434 fe3c 4205 60bb e3f9 373d
00000340: 497b 53bd 7770 58ba edf5 b13d 1d50 0ebc
00000350: ad29 94bd 073b f4bd b037 0bbd 7e09 4dbd
00000360: 447a 643d abc3 78bd de78 36b9 dda7 793d
00000370: 4119 183d 73bf 543c 95a0 94bc 246a 983d
00000380: 1efb 0b3c aa36 44bc 4d1f 04bc 36ca fcbb
00000390: d324 413c 39a3 293c fb7b 25bb dd04 92bb
000003a0: 3b30 91bc c925 b5bb f8c2 13bc b336 8ebc
000003b0: 6306 413c 2f9e 38bc 9654 36bc 373a 91bc
000003c0: 1bde e43b dfb1 95bc e15a 243d 3bd0 9dbd
000003d0: 9067 bbba bffd 963c 3d99 d1ba 9ef4 01bd
000003e0: 8562 233c 42fc 5b3d 99d9 dc3c 0a6a f83a
000003f0: 8640 b03c 8b16 0bbe 756b c2bc 886f f83c
-0.0097190095 0.0047655026 0.009368818 -0.011610796 -0.00022117424 -0.00613179 0.0009109928 -0.0012019428
-0.018755017 0.008590439 0.023323394 -0.038489427 0.0042211236 0.0024989622 -0.009308811 0.035355967
0.035620056 -0.042078964 0.02118744 0.00070708233 -0.002363538 -0.002799431 0.024876066 0.008308501
0.018872514 -0.02105273 -0.015216907 -0.00362858 -0.004258653 -0.025956415 -0.0037548884 -0.0005518025
0.00040883783 -0.00041421602 -0.0016907004 -0.0010459053 -0.0012157689 -6.2086125e-05 0.003934047 -0.0006254736
0.0037432818 0.0048431284 0.0008011911 0.0063603814 -0.003414968 0.0033504092 0.0026305101 -0.00036030976
-0.0035657187 -0.004543403 0.012080217 -0.016695535 -0.0007419626 -0.0053571 0.0034862603 -0.009910069
0.00044364142 -0.0020884296 0.01462701 -0.01140427 0.0025569235 -0.020542195 -0.017525472 0.002583086
0.037981726 -0.085832655 0.027171815 -0.066317074 -0.043370616 -0.04116121 0.0074386247 -0.031063722
0.0813774 -0.016088502 -0.091205925 0.04893384 0.02294254 -0.037673507 0.047464605 -0.13639668
0.050663378 0.011301465 -0.025639024 0.010855121 -0.0011797383 0.009073544 0.02655343 -0.0024282034
-0.029823517 -0.10691866 0.0014464834 0.05466514 -0.06257052 -0.044738043 0.012556368 0.03275408
0.0066700964 -0.0013575124 0.01565011 0.015211334 -0.011070894 -0.01279341 0.004672118 -0.00076554663
-0.008323257 -0.013304488 -0.00020919667 -0.011508836 -0.0033576214 0.008093178 0.0038939945 0.007610079
0.017724916 -0.026670277 -0.011837835 -0.041033775 -0.021314465 -0.0103953555 0.021438232 -0.023136003
-0.029386634 -0.040965013 0.008618522 0.05384501 -0.012186007 -0.09493901 -0.021207843 -0.01585596
0.00410048 0.036631733 -0.011658448 -0.018235235 -0.00037259416 -0.022121254 0.0031764715 0.00985522
0.04142932 -0.02186845 -0.088363945 -0.0075464766 -0.025027396 -0.00030876376 0.05151272 -0.05240497
-0.09817041 0.085453205 -0.056014784 0.014944618 0.008065984 0.0051263375 -0.04774994 -0.029030042
-0.038647946 0.058230463 0.036136154 0.007691415 0.013474594 0.044439696 0.017171215 0.00714217
-0.00017652428 0.012985901 0.0023480523 0.002612916 -0.0007396099 -0.0006245246 0.0078030475 -0.0128872115
0.00064795284 0.012121403 0.0050994013 0.005298204 -0.003005274 -0.0016319606 0.00015861208 0.004650531
-0.020755854 -0.029960472 -0.016461879 0.0009298267 0.0042033233 -0.011826965 -0.008324331 0.020619016
0.054945096 -0.018815007 -0.0037885273 0.04230119 -0.021385707 0.015329484 0.030464811 0.008692135
0.0667721 0.019354077 0.00071555935 0.012656538 -0.036031134 0.011675105 -0.014120826 0.009142469
-0.09712823 0.00834838 -0.007632256 -0.040743 -0.0066400226 0.03103093 -0.0034182821 0.044916045
-0.051631246 -0.00082565047 0.08689485 -0.008686093 -0.072345115 -0.11925321 -0.033988655 -0.05005788
0.055780664 -0.06073348 -0.00017401899 0.060951103 0.03713346 0.012985098 -0.018142978 0.0744212
0.008543758 -0.011975924 -0.008064103 -0.007714535 0.011788565 0.010353857 -0.00252509 -0.004456146
-0.017723193 -0.005528186 -0.009018652 -0.017360067 0.011781308 -0.011268183 -0.011128565 -0.017727954
0.006984485 -0.018273292 0.04012573 -0.077057324 -0.0014297832 0.018431542 -0.0015991103 -0.031727426
0.009972219 0.05370737 0.026959227 0.00189525 0.021515142 -0.13582818 -0.02373288 0.03032662

attention_blocks.0.attention.out_proj.bias f4 [64]
00000000: e5df a13c 8019 253d caa7 d3bd b49c 7a3c
00000010: 8396 82bd 423c e43b 0f8c 9e3c 9112 5e3d
00000020: af43 0abd 1914 37bd 1b7d 07bc 95aa 393c
00000030: 751a 223c 3a93 d43d 65a7 8b3c e59d 5d3c
00000040: 63c2 3abb be81 753c c200 9c3c 9ff6 fcbc
00000050: 8340 86bc d70b ec3c 9538 883d 115a d63b
00000060: f54e 183d 944e b7bc eaf9 04bd 7e1b 10bd
00000070: 02f8 b7bc 9427 d7bc 75c4 1b3d 56c1 70bd
00000080: 62b7 583d ee0f 303d ab97 503d fd30 f9bb
00000090: cac4 56bc a7ae 23bd 6d5a 683b 938e 8ebd
000000a0: 4111 023b b6f9 7fbd e7d1 dc3c d9cb d43c
000000b0: cecc 6abd 793b 953b 28e0 62bd e161 5c3d
000000c0: cdf4 1f3a 4fe8 a3bd 3428 193d 4e7b a1bc
000000d0: eade 5bbc 9aae 4dbd 76c9 923c 8dd6 4abc
000000e0: 69d8 923c 3c5b 69bd d02a be3d 61dd a2bc
000000f0: 9c08 7d3a 3170 16bd c5c0 a03d 23c4 993c
0.019760082 0.04030752 -0.103347376 0.01529615 -0.06376364 0.006965191 0.019353895 0.054216925
-0.033755954 -0.0446969 -0.008269574 0.011332174 0.009894003 0.10379644 0.017047593 0.0135264145
-0.0028497211 0.014984546 0.01904333 -0.030879317 -0.016388183 0.02881424 0.06651417 0.0065414985
0.037184674 -0.022376336 -0.0324649 -0.03518247 -0.022457127 -0.02626399 0.038029153 -0.05877813
0.052909262 0.04298394 0.05092589 -0.007604717 -0.013108442 -0.039961483 0.0035454289 -0.069607876
0.001984671 -0.062494002 0.026955558 0.025976108 -0.057324223 0.004554209 -0.055389553 0.053804282
0.0006101847 -0.08003294 0.037391856 -0.019712117 -0.013419846 -0.05021534 0.01791833 -0.012380254
0.017925458 -0.056971774 0.092855096 -0.019880952 0.0009652467 -0.036728088 0.07849268 0.018770283

attention_blocks.0.norm1.weight f4 [64]
00000000: 1d68 3e3e bd46 133f 67c1 fe3e d130 2d3f
00000010: 127b 073f 3dd2 133f 449b 1e3f 7e86 0a3f
00000020: 527c 213f 9d28 f03e 406f f23e 5878 183f
00000030: 1a81 a33e 8500 5e3f 27da d93e 486c ae3e
00000040: 3bbe 483f 42ab 213f 9988 043f caae 253f
00000050: 266a 463f e6cb 533f 399c 4c3f 6c44 1b3f
00000060: 0ac4 3e3f b08b 573f 9c3f 3f3f 37ac 463f
00000070: 9add 123f dc99 3c3f 3d5a 5f3f 5b73 143f
00000080: 1bad 393f d074 523f f2f7 4a3f c9c6 5f3f
00000090: 5477 103f 1cde 453f 4afa 363b 00d9 553f
000000a0: 9951 233f 7691 173f 3b27 1f3f b6a3 153f
000000b0: 6d2c 6c3f 2001 4e3f 98bf 013f 9b63 af3e
000000c0: dca2 143b 5d0c 263f 76ed 193f 5155 513f
000000d0: aad0 0b3f 9bc5 4f3f 90c8 543b cb05 423f
000000e0: 060d 8c3e c776 373f 19f1 073f 652f 473f
000000f0: 9aef f63b e490 ef3e d3eb 2b3f a1a7 bb3e
0.18594404 0.57529813 0.4975693 0.6765261 0.52922165 0.57742673 0.61955667 0.5411147
0.6308032 0.46905985 0.47350502 0.5955863 0.31934434 0.8671954 0.4254925 0.34066987
0.7841527 0.63151944 0.5177093 0.6471983 0.7750572 0.82733 0.79925877 0.6065128
0.7451788 0.8419752 0.74706435 0.7760653 0.5736939 0.7367227 0.8724707 0.5798852
0.72529763 0.8220949 0.79284585 0.874127 0.5643208 0.77292037 0.002792018 0.8353424
0.63796383 0.5920633 0.62169236 0.5845293 0.9225529 0.80470467 0.50682974 0.3425568
0.002268008 0.64862615 0.6012796 0.8177081 0.5461527 0.81160897 0.0032468177 0.7579009
0.27353686 0.71665615 0.5310226 0.77806693 0.007535887 0.4679023 0.67156714 0.36651328

attention_blocks.0.norm1.bias f4 [64]
00000000: 92fd 913c e152 933c 6b85 4bbc b2fb 86bc
00000010: ffd8 473d 132a 7bba b041 3abc a151 20bb
00000020: 94e3 5d3d 2172 50bc 570e 08ba e603 fa39
00000030: 9e7d e1bc 2206 8a3e 7254 d53c ec7a d9bb
00000040: abd2 e43c ebc3 eb3b 1c51 f83b 0c45 c9bc
00000050: bca2 de3b 50b1 ac3c a5a5 6dbc 92c3 5b3b
00000060: 4a2b 6e3c e91f 04bb 8d08 b23c e072 01bd
00000070: e78f fd3c 81bd e63c 92ea a43c a374 bdbc
00000080: 3999 5f3d 87d0 d23c 3c74 bc3c 7981 d43c
00000090: a3d3 9ebc 96c1 513d 51d0 633b c4e1 153d
000000a0: 07af 5dbd 7613 11bd 97df e3bd 9754 81bc
000000b0: 2593 86bb 8ed7 13bd e7cd c7bc f5a3 68bc
000000c0: 9250 153b 51af 41bc 5e23 01bd 08f3 c7bc
000000d0: 7ed7 b4bc 7257 95bd b0fe 923b 2c0a 34bd
000000e0: b41b d33a 4f4a 67bd 2611 f7bb 0b30 f0bd
000000f0: 5050 d83a 3742 8abd 91c6 2a3c 0fbc 4dbd
0.017821107 0.017983856 -0.012421946 -0.01647744 0.048790928 -0.00095811597 -0.0113682 -0.0024462717
0.054172114 -0.012722523 -0.0005190125 0.0004768662 -0.02752572 0.26957804 0.026041243 -0.006636968
0.027932486 0.007194986 0.0075780284 -0.024569057 0.006794302 0.021080643 -0.014504825 0.0033533317
0.014536688 -0.0020160621 0.021732593 -0.031603694 0.030952407 0.028166534 0.020131383 -0.023126906
0.054589484 0.0257342 0.023004644 0.025940644 -0.019388026 0.05121001 0.0034761617 0.03659226
-0.054121997 -0.03541895 -0.11126631 -0.015787406 -0.0041068965 -0.03609424 -0.024390174 -0.014199247
0.002278362 -0.011821584 -0.03152787 -0.024407879 -0.022075411 -0.072920695 0.0044859275 -0.043955013
0.0016106279 -0.05646735 -0.007539886 -0.117279135 0.0016503427 -0.06750911 0.0104233185 -0.050228175

attention_blocks.0.norm2.weight f4 [64]
00000000: 4275 913c 58d0 183f cf13 b53e ec5d 273f
00000010: 6b51 053f b555 1c3f 1287 143f ebe0 343f
00000020: 40c8 2b3f fec1 ce3e 0dba da3e d753 2b3f
00000030: 59bf c13e 9e16 823f 73e3 f03e ce64 403e
00000040: 3875 443f af0e 363f a6b8 123f 2237 3d3f
00000050: 3d72 413f dc57 5c3f 03e6 583f 0955 263f
00000060: 0221 443f 647b 673f 2840 463f 6472 393f
00000070: ef65 193f 8e64 4e3f 9793 5e3f 208d 2e3f
00000080: f720 5f3f 07d3 503f 3982 4c3f ce3d 7a3f
00000090: 5d28 0c3f 144d 613f bb46 5839 14a2 713f
000000a0: aac4 243f 3e11 073f b1a9 043f cfc9 113f
000000b0: 820d 5c3f 1221 523f 3ab4 d43e 7bfe 273e
000000c0: 3849 a93a 384a 343f 776e 163f 5292 443f
000000d0: 4a9d fc3e 1da7 5d3f a670 b039 db2e 293f
000000e0: f9a5 953e bc85 363f 8257 0c3f e910 623f
000000f0: fca3 d339 6064 db3e 5c04 463f 1c06 b13e
0.017756108 0.5969291 0.35366675 0.6537769 0.5207736 0.6106828 0.580186 0.706557
0.6710243 0.4038238 0.4272007 0.66924804 0.378413 1.0163152 0.4704853 0.18788454
0.7674136 0.71116155 0.57313 0.7391225 0.7556494 0.8607156 0.8472597 0.64973503
0.76612866 0.90422654 0.77441645 0.7244017 0.59921163 0.80622184 0.86943954 0.6818409
0.87159675 0.81572 0.79886204 0.97750556 0.5474909 0.88008237 0.00020625714 0.94387937
0.64362586 0.52760684 0.5182143 0.5694856 0.8595811 0.8208171 0.41543752 0.1640567
0.0012915498 0.7042575 0.58762306 0.7678577 0.49338752 0.8658312 0.00033653266 0.6608712
0.2922819 0.7129781 0.54821026 0.8830705 0.00040367234 0.42850018 0.773504 0.34574974

attention_blocks.0.norm2.bias f4 [64]
00000000: 6f03 80ba d35a 703c b445 e33d 673e 7bbb
00000010: 7618 5a3d b5b7 803b 2bcc 333d bb38 bb3c
00000020: 9fdb 653d a864 c33b 9da5 943d 80cf 17bc
00000030: 84b3 a63c c550 613e d927 1fbb 0769 c13b
00000040: b9fe 923d 08d0 22bc 6fa1 8f3d 13ef 6b3c
00000050: e877 953b 2fd2 64bb 54aa 643d 8535 f8bc
00000060: 714f b83b 8910 acbc cb71 d83c 8d9d a0bc
00000070: 5599 453d 2dd8 3b3c effe 413d 2763 d53c
00000080: d946 b13c d1c9 023d de32 9d3c 0d28 993a
00000090: 6a3e fabc 2026 ce3b c03d 5dba d47c 4e3d
000000a0: 9eff 0dbc 4cc4 0dbd 09e3 0bbd 662e 50bd
000000b0: eeaa 673c 43be 98bc 30c4 4f3b 9412 81bd
000000c0: e5aa 4eba 13df 71bc ebd1 54bc 2365 1abd
000000d0: ad6a f73b 7239 a6bd 7afe 48ba ee5a 2abd
000000e0: fb31 eb3b 123b 81bd 2513 e6bc 1216 00be
000000f0: 581b 42ba 981b 6bbd a112 a33b 7533 8bbd
-0.0009766648 0.014670092 0.11097279 -0.0038336755 0.053245984 0.0039281496 0.04389588 0.0228542
0.05611765 0.005962927 0.07258151 -0.00926578 0.020349272 0.22003467 -0.0024285226 0.005902413
0.07177491 -0.009937294 0.07013213 0.014400261 0.004561413 -0.0034915318 0.0558265 -0.030298958
0.0056247045 -0.021003978 0.026421448 -0.019606376 0.048241932 0.011465115 0.047362264 0.026048256
0.021640228 0.03193075 0.019189294 0.001168491 -0.03054734 0.006291166 -0.00084396824 0.050412014
-0.008666901 -0.03461103 -0.034152064 -0.0508255 0.014139874 -0.018645411 0.003170263 -0.063023716
-0.00078837416 -0.014762658 -0.0129895015 -0.037694108 0.0075505585 -0.081164256 -0.00076673145 -0.041590624
0.007177589 -0.06310095 -0.0280853 -0.12508419 -0.0007404587 -0.057399362 0.004976586 -0.06796924

attention_blocks.0.ffn.0.weight f4 [256, 64]
00000000: ac5d 303a 45f7 493a 9ee1 f9ba e675 163b
00000010: ed0d 78bb 725c 033b a421 213b 4cfa aeba
00000020: 6a72 453b 5f1f 38bb c74e 2ebb 4e3f adbb
00000030: 9acc c939 abf5 a93b 588a 55bb 3539 1cbb
00000040: efae a93b 042e 873a 701f 41bb b3a7 e13a
00000050: b1f1 7fbb ead3 83bb 280a b73b 8284 95bb
00000060: f059 bb3b c5ee e0ba 0cb0 9b3b 3c54 36bb
00000070: f1ac 993b 5dd7 b83b 8725 d6ba cc91 8d3b
00000080: 4d75 c63a a383 083c d9c9 203b 3eef eabb
00000090: b9e5 77bb 5be4 053c 49b6 4037 bf71 e939
000000a0: 8e91 53bb bbed 4b3b b1ee bfbb c5ce 6dbb
000000b0: bac4 88ba 2bdb 7e39 b5d5 67bb 666a 0eba
000000c0: 49f6 3eb9 67e8 2fbb 4e74 e4b9 8d65 4cbb
000000d0: f709 d439 9af2 a9bb 33a1 33b9 0195 ea3a
000000e0: dd8c bf39 063c 7dba f300 6cba 8585 fab9
000000f0: 2f9b b3b9 b5b9 dd3a d6e9 99ba 98f5 afba
00000100: 924a 9dbb ac6e 1bba d563 c53c aefc a83b
00000110: 27fa 38bc d682 2e3c d415 babb 069a fd3b
00000120: 19ee 673c 7589 843c f51a 923b 119d 81bc
00000130: e876 50bc 322d 7d3c 9cee 8a3b e78c 29bb
00000140: 4402 eb3b a1fa deba 4f9a e33b 88cf 2e3c
00000150: 4a37 e53b f48c 3ebb 52ba 23bb 73c9 573b
00000160: 8803 123b d062 35bb b63b d43a 6b0b 7cbb
00000170: 80d1 9b3b b30c ee3a d04a 023c 316a 7bbb
00000180: 1892 af3c d437 4d3c 89b8 313c dfed 88bb
00000190: 62df 83ba dc47 703c 207c e0b8 c96b 86bb
000001a0: 3bde 4fba a48f 25bc 6bee 84bc eb5c c7bb
000001b0: 073e 393c 9758 04bc a8d1 24bc c3d3 65bc
000001c0: 0f83 a1b9 ddba c3bb 9f88 913a 49a7 1bbb
000001d0: 6ead e0ba 79d6 03bc 2abb b9b9 8607 04bb
000001e0: 12b6 9dbb 8b9a 70bb d4df 663c a250 4bbc
000001f0: 971f 27ba 84e6 6bba a2b8 37bb 90c2 9dbc
00000200: b3d8 3bbc a63e 8abc 458d 803c 90b6 033c
00000210: 1a2c 543c 651e 2d3c 97c3 d8bc 2468 1bbc
00000220: 0d1f b33b a31b 29ba 7168 95bb 2c8d 84bc
00000230: bd36 25bc 99ad 903c 9308 a13c 7dcc 39bc
00000240: 34da 763c e640 7c3b 6f59 d8bc 979e 42bc
00000250: e659 2ebc 4f6e 273c ac4a 4bbc eb31 c1bb
00000260: 1143 2e3d 453c d83b a9d2 2fbb 673a 68bb
00000270: 5d1a e83b 13f6 ba3c 907a 45bc 7364 ad3c
00000280: a2dd 653b d658 a0b9 bd96 04bc cb33 98ba
00000290: e1be 50bc 2fd1 333c 1ee2 d4ba 39b3 52bb
000002a0: 3957 d43b 5a27 243c f078 82bc ee04 633b
000002b0: d2c7 8ebb 36fd b2bc f171 84bb ca5a 42bc
000002c0: 119c 8b3a 429c cb3b cf18 88ba 9517 913b
000002d0: 0bd5 bb3b 41dd c93b 9294 9ebb 06c0 923c
000002e0: 0cce 20bc a811 a93b 0c47 37bb becb c73b
000002f0: 4b13 34ba c174 89bc 1c9e 523c 5ca2 b5bb
00000300: d486 7e3c e7f3 873b 269a 893c 5fee e53b
00000310: e917 353d aa18 673c 46e9 70bc 809e bf3c
00000320: 101c ce3a 15fb 2c3c e480 ec3b b00a b93a
00000330: 7106 ee39 b087 883c 842e 6b3c 8967 34bc
00000340: 8624 433c 8e08 0abc 5c38 5fbc 1cbf 68ba
00000350: f599 30bb 1e66 d0ba c777 78bb 7553 a0bc
00000360: 93c2 3e3c fd2e 8b3c 3bb5 a53c a273 55bc
00000370: 41ba 1c3c 7eb7 003d 78e6 84bb b6c3 9e3c
00000380: 63d5 0bbc c142 a83b a022 663a f4cc b3bb
00000390: dc96 c6bc 8f90 6d3b 6383 13ba 746d 523b
000003a0: d17b edbb b427 0c3c a565 3fbc 933a 3abc
000003b0: a6a8 dcbb 4fa0 01bc aee7 723b 888d bbbc
000003c0: 6f02 a3b9 73d4 f0bb 286c 3cbc 78cb b7bc
000003d0: b0bf 553c 5f10 85bb d8ea a8ba ce20 acbc
000003e0: 2218 d1ba e732 56bc 78ab 40bc 0b0c d0bb
000003f0: def6 7aba b47e b0bc 6506 df3b 711c 09bc
0.00067278254 0.00077043875 -0.0019064432 0.0022958457 -0.0037850097 0.0020044115 0.0024586702 -0.0013349741
0.003012801 -0.002809487 -0.0026597248 -0.0052870875 0.00038490148 0.0051867566 -0.003258368 -0.002383781
0.0051783244 0.0010313396 -0.00294682 0.0017216116 -0.0039053971 -0.004023065 0.0055859275 -0.0045629153
0.0057175085 -0.0017161003 0.004751211 -0.0027821204 0.0046898057 0.0056409077 -0.0016338088 0.004320359
0.001514116 0.008332166 0.0024534373 -0.007169633 -0.0037826134 0.00817212 1.1486533e-05 0.0004452597
-0.0032282802 0.003111704 -0.0058573117 -0.0036286574 -0.0010434606 0.00024304974 -0.0035375182 -0.0005432725
-0.0001821156 -0.0026841403 -0.00043574203 -0.0031188459 0.00040443215 -0.005186391 -0.00017130822 0.001789719
0.0003653531 -0.0009660128 -0.0009002827 -0.00047783196 -0.0003425716 0.0016916307 -0.0011742662 -0.0013424633
-0.0048001492 -0.0005929272 0.024095455 0.005157075 -0.01129011 0.010651311 -0.0056788716 0.0077393083
0.014155888 0.016178826 0.00445878 -0.015821965 -0.012723662 0.01545267 0.0042398702 -0.0025871338
0.007171901 -0.0017011949 0.0069458853 0.0106695965 0.0069951164 -0.0029075714 -0.0024982882 0.003292647
0.0022279937 -0.0027677305 0.0016192112 -0.0038458954 0.004755199 0.0018161744 0.007952407 -0.0038362856
0.021431968 0.0125255175 0.010847219 -0.004178747 -0.001006108 0.01466557 -0.000107042724 -0.0041022045
-0.0007929538 -0.010105047 -0.016226968 -0.0060840747 0.011306292 -0.008077762 -0.010059752 -0.014027539
-0.0003080596 -0.0059732036 0.0011103338 -0.0023750833 -0.001714153 -0.00804674 -0.00035425398 -0.0020146086
-0.0048129642 -0.0036713209 0.014091451 -0.012409361 -0.00063752517 -0.0008998888 -0.0028033634 -0.019257814
-0.011465239 -0.016875576 0.015692363 0.008039132 0.012949968 0.010566329 -0.026460452 -0.009485278
0.005466348 -0.00064509566 -0.0045595695 -0.016180597 -0.010083851 0.017660903 0.019657409 -0.011340258
0.015066672 0.003849083 -0.026409833 -0.011878631 -0.010641551 0.010219171 -0.01240794 -0.0058958433
0.04254443 0.0065989816 -0.0026828444 -0.00354352 0.007083221 0.022822415 -0.012053147 0.021166062
0.003507473 -0.00030583766 -0.008092579 -0.0011612115 -0.012740822 0.010975166 -0.0016241705 -0.0032150282
0.0064801243 0.010019148 -0.015926808 0.003464039 -0.0043573165 -0.021849256 -0.004041903 -0.011862466
0.001065137 0.0062136957 -0.001038337 0.00442786 0.005732184 0.0061604087 -0.0048394883 0.01791383
-0.00981475 0.0051595755 -0.0027965931 0.006097286 -0.000686933 -0.016779305 0.012855079 -0.0055430364
0.015535075 0.0041489485 0.016797137 0.0070169414 0.044212256 0.014105001 -0.014704054 0.023391008
0.0015724916 0.0105579095 0.0072175134 0.0014117565 0.00045399697 0.016666263 0.014354352 -0.011011013
0.011910563 -0.008424891 -0.013624277 -0.0008878575 -0.0026947234 -0.0015899574 -0.003791319 -0.019571045
0.01164307 0.01699018 0.020228019 -0.013028057 0.009565891 0.03142499 -0.0040557943 0.019380432
-0.008534762 0.005134911 0.0008778963 -0.005487079 -0.024241857 0.0036249494 -0.0005627183 0.0032108696
-0.007247426 0.008554388 -0.011681949 -0.011366504 -0.0067339716 -0.007911756 0.0037064361 -0.022894636
-0.00031091596 -0.0073495447 -0.011500396 -0.022435889 0.01304619 -0.0040607895 -0.0012887372 -0.021011736
-0.0015952627 -0.0130736595 -0.011759631 -0.006349092 -0.0009573529 -0.021544792 0.006806182 -0.008368597
